logs/rl_games/rocket_direct/2026-02-23_23-47-16/nn/rocket_direct.pth (torch, 484613 bytes, 30 tensors)

value_mean_std.running_mean f8 [1]
00000000: 64d6 a421 265b 2540
10.678025294658433

value_mean_std.running_var f8 [1]
00000000: 4786 ce33 7bbd 4440
41.480322337953616

value_mean_std.count f8 []
00000000: 0000 0000 0180 3c41
1867777.0

running_mean_std.running_mean f8 [20]
00000000: c62a 5c9e 5ee3 af3f 4323 8009 dead c9bf
00000010: 9030 ed0b 0c8a c03f bc68 776b 1a4d bebf
00000020: f47b ab59 7416 a03f 93ea 4b31 b631 a23f
00000030: 85de 17dd eb64 abbf e9ab 5eee 3a89 a2bf
00000040: 07a6 1cc2 e703 983f d9ec e590 b3b4 abbf
00000050: ca14 d317 8016 babf d627 5988 0978 923f
00000060: 7a02 e71c 2497 953f f95a 5e6f 7fe3 bd3f
00000070: a403 198c 1b5a 0ec0 9654 950a 3051 1340
00000080: 45a6 affe b872 ee3f 98ff ecc5 8ef0 d0bf
00000090: fef2 53b9 93e0 9fbf 21be beea e170 b43f
0.06228156741243178 -0.20061850990193805 0.12921286184644432 -0.11836400150005749 0.0314213141880301 0.03553552009357932 -0.053504343737526695 -0.036203233335377956
0.023452397558832796 -0.05411301749969661 -0.1019058283009883 0.018036030718839267 0.021084369911252378 0.11675259083709112 -3.793997854722379 4.829284825672536
0.9515042280519955 -0.2646824772709748 -0.0311301309457006 0.07984745007592454

running_mean_std.running_var f8 [20]
00000000: be6a 689f a69d a13f d292 1cda 3d74 833f
00000010: bd0b 5a43 ae70 6e3f ab7a f831 fd63 753f
00000020: c3aa be54 2d29 673f ce4a b837 5d6b 703f
00000030: 7d71 555b af4a f03f d1d9 c37e 91c7 f13f
00000040: 123e 0a37 1dc2 fa3f 0979 8197 db90 0640
00000050: 3abb 091d 3e2e ed3f d668 d11a 716b bd3f
00000060: 321d f766 0afe ce3f 2440 8324 a48f 0040
00000070: 02de 44d0 a15c 1540 5b79 69ba 83f9 e63f
00000080: 1d17 b75d eff1 373f 7919 a44b d0d7 773f
00000090: fa4d 4563 f4ed 4a3f 5710 3425 82f5 843f
0.034405905684442115 0.009499057024706135 0.0037158397270231334 0.0052223101079379814 0.0028272519466175663 0.004008640414684362 1.018233639500152 1.1112227393874614
1.6723911428451896 2.8207313381564103 0.9118948523663228 0.1149206819986007 0.24212770488359464 2.0701372959665765 5.340461019709894 0.717958320699647
0.00036537259958567704 0.005821050314131043 0.000821823434800028 0.010233895073277361

running_mean_std.count f8 []
00000000: 0000 0000 0280 2c41
933889.0

a2c_network.sigma f4 [6]
00000000: d25c eebc b41b df3d 0bbf 7bbf 1b00 1fbf
00000010: 6750 76bf ad1a 38bf
-0.029096995 0.10893956 -0.98338383 -0.62109536 -0.96216434 -0.71915704

a2c_network.actor_mlp.0.weight f4 [256, 20]
00000000: f9c4 3ebd 7e0e b5bd 548b 88bc 7c9a 283e
00000010: 35de 26be 784f e0bb 2280 f5bd 49d3 bebd
00000020: d1a3 3b3d 0285 36be 9537 543e 5cfc 96bd
00000030: 6a5e 3e3e c72d 8bbc cf2e bebd 874f 193e
00000040: 8b0e 3fbc 2f45 1b3e 4c07 07bc cc07 14bd
00000050: 1bab a83d b843 abbd a9b3 8a3d 6d9d 4d3e
00000060: 6eb2 5f3d b9f2 e3bd 4f44 c43d 7b97 b93d
00000070: 78ac 063e 177c eabd 3df6 27be 9947 583c
00000080: 0b9b 4fbe b66d 033e 7b3f a13d e816 4c3d
00000090: 14c5 023e 1675 293d 52fd 9a3e ab89 b5be
000000a0: 1093 ba3d b865 25be b776 1b3c ee41 9abc
000000b0: 9a43 e73c 83bc 59bc 5cb9 5b3e f600 07be
000000c0: 6b1b f7bd 770a bdbd ec88 913e fc1e 363d
000000d0: 5d99 883e 479c 2ebe 6d2c 35be cc0d e7bd
000000e0: 785c f8bd 4c5c 0d3e c7d8 ee3d 1fd2 3f3e
000000f0: f0c8 14be 470b 31be 406c 5a3e 9ca4 10be
00000100: 50fb 7e3d fe69 94bd 71f4 253e d0f5 ebbd
00000110: 35e9 ffbd f236 aa3d af31 9a3e e0b2 49bd
00000120: fed9 c03d 481f 3e3d 974b 45be 1772 c2bd
00000130: 994e 613e 59c9 34bc 3169 cebd 9871 8fbe
00000140: 54b8 21be 01f7 903d 4b76 0dbd 22f6 ebbd
00000150: 23dc 003c 0d34 0fbe ee62 2cbe 301e 01be
00000160: d9b1 7fbe ff98 07be 7fe6 113e cf6e 77bb
00000170: 2107 f33d 767e 4dbe 558a 10be 2c21 cbbc
00000180: 37ee 823d 3836 57be a757 ecbd 49c1 cbbd
00000190: 8c9b ce3c c470 74bd 64fc a6bd 7ef2 00be
000001a0: c369 83bd 8b84 ffbd 4d2d 92bd ad22 49be
000001b0: 9a47 543e d9da 3cbd a56b 663e 0201 063d
000001c0: 041a 17be 443e 4e3e 7c54 16bd efa5 e7bd
000001d0: 83b3 febd 44c5 6ebe 0533 5f3d d8c7 babb
000001e0: 6251 c13d d3c9 31be 5e24 213e 6cb1 3bbe
000001f0: da97 4bbd 9753 173d e9bc 1a3d fcea 4e3e
00000200: eaf5 f73d 7e7f 3dbd 0f4a b83d 5415 c8bd
00000210: 1cbd bdbc 8195 ddbd 7bb0 3a3e b1a4 19be
00000220: 8ee9 003d 053d 003e 8d50 163d 44be 2bbe
00000230: deda 7d3e 68b3 a1bb 1f46 403c 0d88 84be
00000240: 052c e63d def0 8abc 52c9 f2bd d140 053e
00000250: 62f2 043d 1390 b7bd 9d02 99be 3fe0 063d
00000260: 1da9 3f3e 8b15 20bc 338d e9bd 321f 0ebd
00000270: e3e7 60be 15b7 41bd 0ba5 e13d bee4 14be
00000280: 3631 a73c 09d2 0d3e 3d1d 4c3d 06d8 76bd
00000290: 2164 9c3d c321 7d3d a8e9 c03c b869 2b3c
000002a0: e457 5c3c f154 873d 9ba9 833d 7c5b 1bbd
000002b0: d5b4 0d3e 098d 6b3d 73d5 59bc 8f3d 8fbd
000002c0: b723 3b3d 4d9a ad3d ab2b 693a e56a dc3d
000002d0: 2e1c 8ebe 8f51 28bd bcb0 273e ea88 093e
000002e0: be93 90bc 6e84 0cbe 9a75 d0bd f2d9 49be
000002f0: 4fe9 acbd f35a 103d 0f4f 3b3e 1836 503d
00000300: 1582 55be cf22 bbbd 48d6 e5bc fbd9 8c3e
00000310: 1333 913d 1aa6 173b 5589 043e c494 09be
00000320: 8a5d babd 3a90 ef3d 0ea2 d7bd f911 da3b
00000330: cdbc 2bbe 8fba 063e a4a9 1a3e 1aed cf3d
00000340: c6ba 16be 5305 4dbe 568c 1cbe 0152 233e
00000350: 7772 233e e525 223e 03a7 ee3d c16d 653d
00000360: 7e20 163d 7c75 21be 47b6 43be 05b0 44be
00000370: f56a ef3c 679b a9bd 5483 8fbd b7e3 c8bd
00000380: 9050 cbbc 4418 25be 7199 01be f5e4 2c3d
00000390: 2858 edbd 36de ba3d e490 fbbd 45b2 23be
000003a0: 6e5f 3b3b c738 a2bd dddf 96bc 1f50 67be
000003b0: ace7 433e 7f72 07be 95d2 f03d afbf d43d
000003c0: 6edc 933e e437 60be 0183 183e e01b aabd
000003d0: fb7a 843d f9b4 143e 7637 52bd a15e 853d
000003e0: dc2c a13c 9cf1 f1bd 08b5 b63d ca59 6dbe
000003f0: 191a 613e 9663 2a3e 33c9 003e d34a 6a3c
-0.046574567 -0.08840655 -0.016668 0.16465181 -0.16295703 -0.006845411 -0.1198733 -0.09317643
0.045810524 -0.17824176 0.20724328 -0.073723525 0.18590704 -0.016989602 -0.09286272 0.14971744
-0.011661182 0.1516311 -0.008241486 -0.03614025 0.08235761 -0.08362526 0.06772549 0.20079584
0.054613523 -0.1113028 0.09583341 0.09062096 0.13151729 -0.114494495 -0.16402526 0.013200664
-0.20273988 0.1283482 0.07873436 0.049826533 0.12770492 0.041371427 0.30271393 -0.35456595
0.09110081 -0.16152084 0.009488753 -0.018830266 0.028230477 -0.013289574 0.21457428 -0.1318396
-0.120657764 -0.09230512 0.28424776 0.044463143 0.26679507 -0.17051803 -0.17692728 -0.112819284
-0.12127012 0.1380474 0.11662441 0.18732499 -0.14529777 -0.17289458 0.21330357 -0.14125293
0.06225139 -0.07246779 0.16206528 -0.115214944 -0.124956526 0.08311261 0.3011603 -0.049242854
0.09416579 0.04641655 -0.19267116 -0.09494417 0.22002639 -0.011034333 -0.100786574 -0.28016353
-0.15792972 0.07078362 -0.03453664 -0.115215555 0.007864985 -0.139847 -0.16834614 -0.12609172
-0.24970187 -0.13241957 0.14248084 -0.0037755256 0.11866594 -0.20067772 -0.1411527 -0.024796091
0.06393092 -0.21016777 -0.11540156 -0.099489756 0.025220655 -0.059677854 -0.081536084 -0.12592503
-0.06416657 -0.124764524 -0.07137547 -0.19642134 0.20730439 -0.046107147 0.22502 0.032715805
-0.14756018 0.2014094 -0.036701664 -0.11310946 -0.12436583 -0.23317438 0.054492015 -0.0057000928
0.09439351 -0.17362146 0.15736529 -0.183294 -0.049705364 0.03694495 0.037777815 0.20206827
0.12107451 -0.046264164 0.089985006 -0.09769693 -0.023161463 -0.10819531 0.18231384 -0.15004231
0.031472735 0.12523277 0.036697913 -0.167718 0.24790522 -0.004934717 0.011735468 -0.25885049
0.11238865 -0.016960558 -0.11854805 0.13013007 0.032457717 -0.08963027 -0.29884806 0.0329287
0.18716855 -0.009770761 -0.11403885 -0.03469772 -0.21963458 -0.04729374 0.110178076 -0.14540383
0.020409208 0.13849653 0.04983257 -0.06026461 0.076362856 0.061799776 0.023548916 0.010462217
0.013448689 0.06607998 0.06428834 -0.037929043 0.13838513 0.05750755 -0.013295519 -0.06994163
0.045688357 0.08476696 0.00088947517 0.10762576 -0.27755874 -0.041093405 0.16376013 0.13431135
-0.017648574 -0.13722393 -0.10178681 -0.19712046 -0.084429376 0.035242986 0.18291877 0.050832838
-0.20850404 -0.091374986 -0.028056279 0.27510056 0.0708982 0.0023139776 0.12943013 -0.13435656
-0.090998724 0.11697431 -0.10528956 0.0066549745 -0.1677124 0.13157104 0.15103775 0.101526454
-0.14719686 -0.20021562 -0.15287909 0.15949251 0.15961634 0.15834768 0.11652949 0.056012873
0.03665208 -0.15767473 -0.19112502 -0.19207771 0.029225806 -0.08281594 -0.07007471 -0.09809058
-0.024818689 -0.16122538 -0.1265619 0.042210538 -0.1158908 0.091244146 -0.12283495 -0.15985973
0.0028590816 -0.07920986 -0.018417293 -0.22589158 0.19131345 -0.1322727 0.11758915 0.10388123
0.28879112 -0.2189632 0.14893724 -0.08306098 0.06468769 0.1452216 -0.051322423 0.0651219
0.01967471 -0.118136615 0.08921248 -0.23178783 0.21982612 0.16639552 0.12576751 0.014300066

a2c_network.actor_mlp.0.bias f4 [256]
00000000: 839d 15be 5c24 053e a510 f0bd 0057 673d
00000010: d876 e83d 5016 90bd f008 bfbd eadc a6bd
00000020: 3b23 0d3e 3116 3a3e 41ea 59bd 216a 113e
00000030: 6523 febd 0e05 17bd 835b a53d 793a dc3d
00000040: 908f c33d 996c 8fbc e460 2d3e 52cc 2abd
00000050: d446 d4bd 26bc 8bbc 3eca 283e 168e 753c
00000060: 750b 573e c444 4b3e f1c8 e3bc 0ac9 edbc
00000070: 6f1a 5abd 28bc 083e 03e2 123d a451 fe3d
00000080: c7fc 403e b258 f73d c1fc 043e 8e62 1b3e
00000090: d595 383d 444e 203d dd16 563e 5743 49bd
000000a0: 46dc ff3d 1767 923c 3274 b93c e1b3 873d
000000b0: 5870 2e3e 2137 363d 59cd 52bd 7e88 27be
000000c0: fd42 3d3c f75a 163e 39d3 9d3d 0199 e83c
000000d0: f840 683e a28b a5bd 4014 3c3e b6cf 13bd
000000e0: 6d60 3c3d dc80 163e 4183 8b3d 8e9c 73bc
000000f0: e77a 52ba d355 16bd 264d 813d 439e 4a3d
00000100: 4921 3fbe 405e 4c3e 8161 f93c 5a3b 853e
00000110: c781 bb3d 300a 4dbd 54ef 453d 8b3a 21bd
00000120: 3b63 f5bc df86 fabb bfab adbd 365a ffbc
00000130: 8ad1 493e 29b6 e03d f53a 5e3e 9280 733e
00000140: 307d b13d 0293 9d3c 9f73 113e f6c7 153e
00000150: 4ce5 03be 7032 4d3a 379b f6bd afdf 823d
00000160: 1fae 5cbd 2fca 0e3e 5aba 92bc a523 033e
00000170: 3ac0 d53d 22e7 43bc 708b 543e 49d9 4a3e
00000180: b7a9 173d 3edc 1b3e 98e0 053d 5c2f c53d
00000190: 5548 deb9 94b9 453e c567 a43d 6f40 06be
000001a0: 8f68 d23d 97fb 0d3e 9456 e63d 9bac 403e
000001b0: 138c 6b3d 1839 193d c9e5 94bd b171 f03d
000001c0: c20a 8f3d ede9 5e3e b723 f53c 46cd aa3c
000001d0: 249f 10bd 4230 d1ba dbc4 233e 6cfa ba3d
000001e0: 6ce8 d53d 656d b93d 7b82 e1bc 2196 583e
000001f0: 098e 50be db6d d33d af07 f0bd fe5b 0f3e
00000200: 8a80 903a fb24 c9bc 0807 243e 6593 1e3e
00000210: 764c 12bd 7eba 673e 1607 0dbd 0458 413d
00000220: 0a91 f63d 691a 3b3e c234 e73d c178 c93d
00000230: caff f13d d7a8 2a3e a522 5e3c d76c d9bd
00000240: f108 033d 3ab8 403e d9fd 873e 704a 003b
00000250: bed4 ec3d d188 69bc dd1d 133d d059 063e
00000260: 666f bc3d 6312 15be 6ace cdb9 5110 783e
00000270: 7310 b23c 1caf 6d3e 366e b3bd a89f ad3c
00000280: 8eef 283e bec8 253e a518 9e3d c0d1 bbbd
00000290: 069c 1abe dbc0 653e 161b 0a3e aefc b3bc
000002a0: 504f ea3c 6df0 043e f434 433e 8f1c 51bd
000002b0: fc70 2d3e ac6b 053e 0c5d ba3d 6e48 2dbd
000002c0: 0ea0 123e 8b7b 31be cf84 a1bc 6874 c83d
000002d0: 7955 77bd 66d9 433e ec0c 303e b34c f63d
000002e0: 1351 78bd 1734 7d3e f012 ac3d 8458 403e
000002f0: c8d0 113d 4bef 443e e887 103e fc30 de3d
00000300: 0b37 0dbe ef96 f03d 4d7a 093e 4cb6 8abc
00000310: 356e 263e cd6c 243e 2c1a 013d 2808 b63d
00000320: daf9 3a3e b729 9b3e 652f 3e3d 51a0 5d3d
00000330: 1797 0fbe de5c 973c bf0f 223d 2e63 823e
00000340: d965 2bbe d604 523d d37f 13bd a538 ebbd
00000350: 0ac8 8e3e 3886 693e 2f8f 75be c333 243e
00000360: fb81 833e 37e1 4f3e 04f3 f5bd 120c 653e
00000370: da35 1b3e 0af7 54be 65f9 3b3d 26b1 053e
00000380: de7a 103e ac09 e53d dc15 513d 8632 5abd
00000390: 43bc 24be a759 bb3d 0d86 b33c 5bb0 e13d
000003a0: 26c0 d33d 04f8 00bd ea1e ff3b 2f2d 133e
000003b0: d61c 17be 0dbe 493e 54b2 b23d d575 7b3e
000003c0: c737 a1bd 45ca 2f3d 87c1 22be 6f28 0fbd
000003d0: 16ef f0bc b335 de3c 73e0 d3bc 2641 1a3e
000003e0: 7894 dfbc 5d10 d73d 3911 0f3e 0a0d 2a3e
000003f0: ea74 58be fc31 9d3d 29fe cbbd 7bc7 003d
-0.14610867 0.13002151 -0.11721925 0.056479454 0.11350793 -0.07035506 -0.093278766 -0.08147605
0.1378297 0.18172528 -0.053201918 0.14200641 -0.12409095 -0.036870055 0.08074095 0.1075334
0.09548867 -0.017507838 0.16931492 -0.04169876 -0.10365072 -0.01705749 0.164834 0.014987489
0.21000464 0.19850451 -0.027805777 -0.029026527 -0.053247865 0.13353026 0.035860073 0.124179155
0.18846427 0.12077464 0.12987043 0.15174314 0.045064766 0.03913714 0.20907159 -0.049136486
0.12493186 0.017871423 0.022638414 0.06626106 0.17035043 0.04448617 -0.051465366 -0.16360661
0.011551616 0.14683138 0.07706303 0.02839327 0.22681034 -0.080832735 0.183671 -0.03608676
0.045990396 0.14697593 0.06812144 -0.0148688685 -0.0008029178 -0.036702942 0.06313543 0.049467336
-0.18665041 0.19957829 0.030442001 0.26021844 0.091556124 -0.050058544 0.048323944 -0.03936247
-0.029954543 -0.0076454724 -0.084800236 -0.031170946 0.19708839 0.10972244 0.21702178 0.23779514
0.08666456 0.019235138 0.14204262 0.1462706 -0.12880439 0.0007827645 -0.12041324 0.063903205
-0.053876992 0.13944314 -0.017911125 0.12806566 0.10437055 -0.011956962 0.20756316 0.1980945
0.037027087 0.15220734 0.032684892 0.09628174 -0.0004239703 0.19309074 0.08027605 -0.13110517
0.10273849 0.13865505 0.11246982 0.18815844 0.057506632 0.037407964 -0.072703905 0.11740435
0.06984474 0.21768923 0.029924257 0.020849835 -0.03530802 -0.0015959817 0.15993063 0.091297954
0.104447216 0.090540685 -0.027528038 0.2115102 -0.20366682 0.10323688 -0.117202155 0.13999936
0.0011024636 -0.024553766 0.16018307 0.15485914 -0.03571745 0.22629735 -0.034430586 0.04720308
0.12039383 0.18271793 0.1128936 0.09837485 0.11816366 0.1666597 0.013558065 -0.10616463
0.03199095 0.18820277 0.26560858 0.0019575618 0.11564015 -0.014253811 0.03591715 0.13120198
0.09200935 -0.14557795 -0.00039254437 0.24224974 0.02173636 0.2321133 -0.087612554 0.021194294
0.16497633 0.16189858 0.07719544 -0.09170866 -0.1509858 0.2243685 0.13486895 -0.021971073
0.028602272 0.1298234 0.19063169 -0.051052626 0.16937631 0.13029355 0.090997785 -0.042305402
0.14318869 -0.17332284 -0.019716648 0.09787828 -0.060384247 0.191259 0.1719243 0.12026348
-0.060624193 0.24726902 0.084020495 0.18783766 0.0355995 0.19231908 0.14114344 0.10849187
-0.13790528 0.11747538 0.1342556 -0.016932629 0.16252978 0.16057129 0.0315191 0.088882744
0.18259373 0.30305263 0.046431918 0.054107968 -0.1402248 0.0184769 0.039565798 0.25466293
-0.1673807 0.051274143 -0.036010575 -0.114854135 0.27886993 0.22805107 -0.23980401 0.1603537
0.25685105 0.20300756 -0.12009242 0.22367886 0.15157261 -0.20797363 0.045892138 0.13055858
0.1410937 0.111834854 0.051046237 -0.05327084 -0.16087441 0.09147959 0.021914506 0.11019965
0.10339384 -0.031486526 0.0077856677 0.14372705 -0.14757094 0.19701405 0.0872542 0.24556668
-0.07871967 0.04291751 -0.15894137 -0.03495067 -0.02941088 0.027125215 -0.025863862 0.15063915
-0.027292475 0.10501168 0.13971414 0.16606537 -0.21138349 0.076755494 -0.099605866 0.03144024

a2c_network.actor_mlp.2.weight f4 [128, 256]
00000000: 1a61 fbbc a0d6 3b3d 1491 af3c efb0 af3c
00000010: 5a70 abbb d544 1d3c 2220 7a3d f302 27bb
00000020: ac74 b6bc e167 d83c 254e bdbc 37d5 32bd
00000030: 96e0 c1bb 4536 583d bdae 2d3d 013e 7c3c
00000040: d39d 8a3d 6e05 f43c d7ad c23c b8fd c93c
00000050: feb9 6dbb e92b a0bc 5e2b 2ebd 7f58 d83c
00000060: 9c40 203d a474 6abc 639c c93a b4bd 15bc
00000070: 4307 dbbd 281a 15bd 53cd 88bd 3e4a 54bd
00000080: 7d83 c2bc b65e 063d 4b9a a03c 0f97 b23c
00000090: 6e51 443d e3c7 d9bc 424a 113b 7e9d 72bd
000000a0: ce2c 843d f0f7 1d3d 8a0b ddbc d6b3 80bd
000000b0: 3c77 0cbc 87c2 233d 6eef e7bd c0bd adbd
000000c0: 6eee 8d3d 9bc2 1dbc 4176 2ebd 9f23 46bd
000000d0: 7eb7 aa3d b667 ba3d 52ed 023c 48ce 073d
000000e0: 9003 d73d cb15 823d 6509 6dbd a5cd aa3d
000000f0: 2795 18bc e840 1a3d fa19 ac3d addd 94bd
00000100: ee33 fdbc b289 6b3b f7f1 643d 846d 403d
00000110: 8de1 ab3d 0149 9fbd dd12 443d 548b fe3c
00000120: 86a0 823d df78 73bd 2692 c8bc f9c3 9d3d
00000130: f5c3 503d 8a85 9c3d 0af0 67bd 1faa 75bd
00000140: cebb 333d 7d5a 123d f9b8 45bd 63a4 c93d
00000150: 780c 5b3d 3d64 60bd 550b 68bc fda7 05bc
00000160: 7f23 a9bd 641b c23c 6f69 8bbc 9e71 bebc
00000170: f21f 12bd 7666 b13d 5665 77bd 5175 ec3b
00000180: 353b 9abd af41 973c 13d9 833d 0c38 453c
00000190: ff3d 72bc ca21 9b3d 0d75 773d 434d 37bd
000001a0: 289c 8a3b a436 a73d 3e62 683d 8edd 9e3d
000001b0: 5310 853b c862 87bd 79d8 f33b 942c 093c
000001c0: bca2 443d c14d 4c3d 3078 fdba c3db eb3c
000001d0: e9c0 dabc ca98 933d 683d 853d 6b95 cc3c
000001e0: 75f0 94bb 1f84 a03d f8d6 c93d 17d5 873d
000001f0: 5dd1 e13b 3db5 29bc 0151 76bd b69f b8bc
00000200: e0cb 263d 449d c63d d800 30bd 640d 51bd
00000210: 680b eabc 65c9 98b9 0b6f e4bc 3ffc 783c
00000220: c029 143d f23e d53c 7f2a b43d c9e6 7b3d
00000230: 68fa 6abd 22c5 603d cf2c b13d 22be 18bd
00000240: 260c 50bc 7c03 b73d 5681 b8bc d0c0 d93c
00000250: 2d82 f93c 9140 883d f4c6 953d e9f4 313d
00000260: 8e95 863d c0d6 83bc 1087 653d f46c 563a
00000270: 51bf 23bc 4ca4 8dbd 5bc6 ebbc 69d2 de3b
00000280: 720f 7e3d 0d34 b4bc 7507 d13b dc47 3d3d
00000290: 3d30 8d3d b397 40bc 5cbb b83d 580f 05bd
000002a0: 3b77 9abd 8c3d 113d 107e e4bc 99c6 9a3c
000002b0: c9bc eb3d 8a0d c7bc 90f0 7dbd cea0 e13c
000002c0: e59a bb3d 90d6 ed3b e492 d23d 93b2 af3d
000002d0: 3bdf 523b 087d 26bd f4e7 02bd 9f20 13bd
000002e0: 9c92 063c 71e1 c33d 3f94 68bd 0889 bf3d
000002f0: c075 393d 9781 99bb 97b1 9dbc 890f 04bc
00000300: 6fd4 b63d 1bbe a1bc 2806 553d 8bc6 a4bc
00000310: 2e93 b53d cf8c 893d cbd2 1fbd 1358 bdbd
00000320: f3e8 9dbd e739 cc3c e19d 793c fcdd 393c
00000330: 5dac 0e3d 13f6 00bb d39a 09bb 4be3 6c3d
00000340: 1de1 663d 3df2 283b 6caf 9c3d 6194 34bd
00000350: fe2a 54bd a488 ca3d aaf6 93bd bf3d 11bc
00000360: 0489 ed3d 8a5a cd3c e288 14bb eb54 43bd
00000370: 1b76 cbbd 0e3f 6f3d b822 77b9 f4b4 3bbd
00000380: f07e 00bd 833a 18bc 4efe d53d 69f9 71bc
00000390: d07c 153d b2a6 b6bd 20e6 a93d 8451 dd3d
000003a0: 1412 223d b595 47bd 8204 d53d 059f f73c
000003b0: 627d 8a3d ad25 a43c e9ed 81bd b762 993d
000003c0: e14e 733b 2689 113d 491c d33c a175 f13c
000003d0: c1a9 00be 3cdb ad3d a2b9 673d b22d 84bd
000003e0: 4af1 35bd 8664 b03d b57a 973d 2ebd 153d
000003f0: 6d2d 12bd 495e 14bc 09ba 3abd 8264 313d
-0.03068595 0.04585898 0.021431483 0.021446673 -0.005231899 0.00959893 0.0610658 -0.0025483936
-0.02227243 0.02641672 -0.023108551 -0.04366037 -0.0059166653 0.05278613 0.04240297 0.015395642
0.06768384 0.029787745 0.023764534 0.024657115 -0.003627419 -0.019552188 -0.042521827 0.026409386
0.039124116 -0.014310036 0.001538169 -0.009139467 -0.106947444 -0.036401898 -0.066797875 -0.051828615
-0.02374434 0.032805167 0.019604823 0.021800546 0.04792922 -0.026584571 0.0022169505 -0.059232228
0.06453858 0.03856653 -0.026983041 -0.06284301 -0.00857335 0.039980438 -0.113249645 -0.084834576
0.069302425 -0.009628917 -0.042593244 -0.048373815 0.083357796 0.091018125 0.007991152 0.03315571
0.10498726 0.06351813 -0.057870287 0.08340005 -0.009312904 0.037659556 0.08403392 -0.07268844
-0.030908551 0.0035940227 0.05589482 0.046979442 0.0839263 -0.07777596 0.047869552 0.031072296
0.06378274 -0.059441444 -0.024483752 0.077033944 0.05096813 0.07642658 -0.056625403 -0.059976693
0.043880276 0.035730828 -0.048272107 0.098458074 0.053478688 -0.054783095 -0.014162858 -0.008157727
-0.082587235 0.023694701 -0.017018048 -0.023247536 -0.035674997 0.08662121 -0.060399376 0.0072161336
-0.07530824 0.018463938 0.06437888 0.012037288 -0.014785289 0.07574804 0.060414363 -0.044751417
0.004230041 0.08164719 0.056734316 0.07757102 0.004060784 -0.06610638 0.007441577 0.008372445
0.048006758 0.04987884 -0.0019338187 0.028791314 -0.026703315 0.072068766 0.06505853 0.024973592
-0.0045452663 0.078377 0.09855455 0.066324405 0.006891413 -0.010358152 -0.060135845 -0.022537094
0.040721774 0.09697965 -0.042969555 -0.05103816 -0.028569892 -0.0002914175 -0.02788498 0.015196859
0.03617263 0.026030991 0.08797168 0.06149939 -0.057367712 0.0548755 0.08651125 -0.0372907
-0.012698209 0.089362115 -0.02252261 0.026581198 0.03045758 0.0665294 0.07313338 0.043446455
0.06571494 -0.016093612 0.05603701 0.00081796874 -0.009994344 -0.06916103 -0.028781107 0.006799985
0.06202645 -0.021997476 0.006379063 0.04621111 0.06893966 -0.011754918 0.09020111 -0.032485336
-0.07542273 0.035459086 -0.027892143 0.018893527 0.11510617 -0.024298448 -0.061996996 0.027542498
0.09160403 0.007258244 0.102819234 0.08578982 0.0032176513 -0.040646583 -0.03195949 -0.03591978
0.008213665 0.09564484 -0.056782003 0.093523085 0.04527831 -0.0046846378 -0.01924972 -0.0080603445
0.08927237 -0.01974397 0.052007824 -0.020114204 0.08865963 0.0671631 -0.039019387 -0.092453144
-0.07710447 0.024929954 0.015235395 0.011344429 0.034832347 -0.0019677922 -0.0020996823 0.05783395
0.05636703 0.002577915 0.076506466 -0.044086818 -0.051798813 0.098893434 -0.07224782 -0.008864819
0.11598399 0.025067586 -0.0022664596 -0.047688406 -0.09934636 0.058409743 -0.0002356869 -0.045826867
-0.031371057 -0.009291294 0.104488954 -0.014768937 0.036495984 -0.08918513 0.08295846 0.108065635
0.039568022 -0.048726756 0.104012504 0.030227194 0.06762196 0.020037496 -0.06344206 0.074895315
0.0037125873 0.035531186 0.025770323 0.029475035 -0.12564756 0.08489081 0.056573518 -0.06454028
-0.044419564 0.08612923 0.073964514 0.03655737 -0.035687853 -0.009055682 -0.045587573 0.043308742

a2c_network.actor_mlp.2.bias f4 [128]
00000000: 64e4 6cbd 6c7c 58bc 6693 3a3d 2ece 1abd
00000010: 502a a13d 5783 e73d 035a 05be 5fa8 b6bd
00000020: 43e2 d03d 05e9 2ebe ca15 00bd 250c d43d
00000030: 2bf2 0dbe 942c c73d 10cf 003e 8ce7 32be
00000040: 0a96 ad3d 777a 3d3d 3024 1bbe 6bd3 09be
00000050: 3b5f bd3d d577 b8bd e274 a7be 96b3 8ebc
00000060: ca16 92bd 3b99 04be 9edb 2ebc 5399 afbd
00000070: 61ef 843d 33ca 64bd bfcf 77be c404 a1bd
00000080: 0f85 893d bcdb 08be 6000 1abe 53ad c53d
00000090: 768a 2e3d 829b 05be 2842 75bd 3d3d a3bc
000000a0: aa2e 98be fe5f edbd ef29 17be 1a7a 103d
000000b0: 26d1 9bbd 693a 1cbe 5e23 b53d 4bc8 883d
000000c0: bad1 76bb 8bb2 b83d 17c3 b13c a6f5 f43d
000000d0: 4564 7dbe 99a0 aa3d 12be 793d 4494 bd3d
000000e0: 3c14 b3bd 3fbb 72bd 70a7 efbd 8f80 e1bd
000000f0: 1134 f33a bbfd 21bd 6c04 593d d920 a23d
00000100: 0088 99bd 9388 df3d a565 ebbd 6f59 713d
00000110: 3621 1e3d c337 eabd 2fb7 6ebe dece 32be
00000120: 4973 063d a8c7 5a3d afbf 4c3c 6d7c 78bc
00000130: 3bb8 dc3d 5e0d 573d f0bc f3bd 71de 16be
00000140: ad69 8e3d 6f3e 9dbd 70a1 f53d 3911 fe3d
00000150: 90e8 ed3d 1f25 ddbd aebf 29be 0ac4 c0bd
00000160: 9c34 b7bd 75d8 ac3d 6431 aebd 6a6f 04be
00000170: 3f3f 12be 274b d33d 98ea 20be 6ab4 953d
00000180: 3c75 d3bd d0dc ecba 5045 003e 0686 87bd
00000190: ea2a c33d 44f2 17be 27dc cdba 0d1c 57bd
000001a0: 2804 883b db2e 72bd c0bf 81be e10c 4e3d
000001b0: 3f97 6ebe 5df5 ecbd a1d3 61bd 480f 7f3d
000001c0: 9ed6 373d 9e60 a33d 1172 0ebe 041f 1ebe
000001d0: 5be3 88bd 960c 06bd 0bf0 1dbe 2cd2 133d
000001e0: 87af 78bd e1c7 edbd 5b1b ebbd 3bd2 3d3d
000001f0: 98f0 09be 4a2f 12bd c006 cabd 72b0 52bc
-0.057834998 -0.013213258 0.045550726 -0.037794285 0.078693986 0.11304348 -0.13022618 -0.08918833
0.10199406 -0.17081077 -0.03127078 0.10353879 -0.13861911 0.097252995 0.12578988 -0.1747114
0.08475883 0.04625937 -0.15150523 -0.13459556 0.092466794 -0.09007231 -0.32706362 -0.017419618
-0.07133253 -0.12949078 -0.010672478 -0.08574166 0.064909704 -0.055856895 -0.24200343 -0.07862237
0.06714832 -0.13365072 -0.15039206 0.096521996 0.042612515 -0.13047603 -0.059877545 -0.019926662
-0.29723102 -0.11590575 -0.1476209 0.035272695 -0.07608251 -0.15256657 0.088446364 0.06678828
-0.0037661628 0.09018429 0.021699471 0.11960916 -0.24745281 0.08331413 0.06097228 0.09256795
-0.08744094 -0.059260603 -0.11701858 -0.11010849 0.0018554946 -0.039548617 0.052982733 0.079164214
-0.07496643 0.10914721 -0.114939965 0.05892318 0.03860589 -0.11436417 -0.23312066 -0.17461726
0.03282479 0.053413063 0.012496873 -0.015166384 0.10777327 0.052502982 -0.11901271 -0.14733292
0.0695375 -0.07677924 0.119936824 0.12405629 0.116166234 -0.10798096 -0.16577026 -0.094123915
-0.08945581 0.084397234 -0.08505514 -0.12933126 -0.14281939 0.103170685 -0.1571449 0.07309802
-0.10325095 -0.0018071178 0.1252644 -0.0661736 0.095296696 -0.14838511 -0.0015705869 -0.052516986
0.004150886 -0.059126716 -0.25341606 0.05030525 -0.23299883 -0.11570237 -0.055133466 0.062270433
0.04488241 0.07977413 -0.139107 -0.15441519 -0.066839896 -0.032726847 -0.154236 0.036089107
-0.06071427 -0.116103895 -0.11479827 0.04634307 -0.13470685 -0.03568963 -0.09864569 -0.012859451

a2c_network.value.weight f4 [1, 128]
00000000: ae91 bebc 8f45 0e3b 1d2a 2d3c e31c 0d3d
00000010: 9025 51bc e59d c13b 0e0b 3e3c 86b0 5cbb
00000020: 5d1a 5bbc b0c6 92bc 21ee 9f3c ad7d bb3a
00000030: fb5f 0bbc d3a9 0b3b d27f 8ebb e29e 9ebb
00000040: 540d 11bc 1791 2cbc 2531 4cbd 0250 53bc
00000050: 4ca1 7fbb 04ac e33b eada 5bbe 43f5 333c
00000060: 17ba adbc f0fd 01bd 52a3 8d3c cbfc 853c
00000070: 7f9c a93b a625 0c3c 8448 b0bd 8f21 3239
00000080: 8300 083c d335 8abd 6464 95bb aceb 973c
00000090: ecd0 a7bb 20b3 e4ba 98fc 913c 6c34 003c
000000a0: f546 04be 4de4 8ebb 3b98 233c d7d0 953b
000000b0: 298b 2a3c f65f 64bc bff0 a4bb cfdb 20bb
000000c0: 9130 a93c 77d3 d7bb 891d 7e3c a93c 863c
000000d0: 7251 3dbd 80d0 903b 33a1 253c e0b0 d3b9
000000e0: 0356 93bd 62e1 9b3b c2d7 f2bc 0b97 f8bc
000000f0: 9040 6d3c bd7b e73b 2dc1 7e3a f484 cdbb
00000100: df7c 13bd 23b0 a13c 2328 37bd 866b 8639
00000110: 4aa8 973b bc21 92bd dfec 5ebd 8c25 4ebc
00000120: 3748 9ebb 5a01 4b3b 7999 c8bb a1aa 163b
00000130: 986b 733c 3b9b 22bc fba9 393b 98bf b5bd
00000140: 0028 33bc aa22 35bc 5d91 203c e729 9a3b
00000150: 4e1f abbb 854b aabb 58e9 9d3c b347 56bd
00000160: 160c 5b3d 40c5 823c 0d7b 36bc b10a 39bc
00000170: 1b71 ca3c 3786 723c 6b3c d83b 448c ddbb
00000180: cac9 abbd a408 563b 7e56 d33b 60b3 4dbd
00000190: 21a9 293c ca4b 1e3c 58c7 8f3b 1acb 1bbb
000001a0: 05dc a3ba 74d7 3a3c 466b bdbd fa5f 273a
000001b0: 17dd 71bd a8f5 8c3c 4d23 5dbc a0af a2bb
000001c0: 4384 f33a 7a83 fd3b 4581 5cbc 8e4a cbbc
000001d0: a471 92bd 7cbf 54bb aaf2 3bbd 6518 2e3b
000001e0: e28d 3ebd 4ce3 fbbc e06f ec3c 03a0 06bc
000001f0: 1e1b 73bd 3226 12bd 2810 2abd 0a92 733c
-0.023262825 0.002170894 0.010569123 0.034451377 -0.012765303 0.005908715 0.011599315 -0.0033674552
-0.013372985 -0.017917007 0.019522728 0.0014304422 -0.00850677 0.002131094 -0.0043487335 -0.0048407177
-0.008853275 -0.010532639 -0.049851555 -0.012897493 -0.0039006053 0.006947996 -0.21470228 0.010983768
-0.021206899 -0.031736314 0.017289791 0.016355893 0.0051761265 0.008553898 -0.08607581 0.00016987904
0.008300903 -0.067485474 -0.0045590866 0.018544994 -0.005121341 -0.0017448403 0.017820641 0.007824998
-0.12917693 -0.0043607117 0.009985025 0.004572015 0.010409155 -0.0139388945 -0.005033582 -0.0024545079
0.020653041 -0.006586488 0.015509971 0.016386347 -0.04622025 0.0044193864 0.010109234 -0.00040376838
-0.0719414 0.0047570923 -0.029643897 -0.03034546 0.014480725 0.0070643113 0.00097181165 -0.0062719528
-0.03600776 0.019737309 -0.04471601 0.00025638583 0.004628216 -0.071353406 -0.054425117 -0.012582194
-0.004830386 0.0030976147 -0.006121811 0.0022989886 0.014857195 -0.009924705 0.0028330076 -0.08874434
-0.01093483 -0.011055628 0.009800282 0.004704702 -0.0052222377 -0.005196991 0.019276306 -0.05231447
0.053478323 0.015963197 -0.011137736 -0.011294053 0.024712136 0.014802507 0.0065989993 -0.0067611057
-0.083880976 0.0032658959 0.0064495197 -0.050219893 0.010355265 0.009661624 0.0043877773 -0.002377218
-0.0012501484 0.011403907 -0.092489764 0.0006384846 -0.05904874 0.017206982 -0.013497186 -0.004964784
0.0018578846 0.0077366205 -0.013458555 -0.024815824 -0.071505815 -0.0032462766 -0.04588572 0.0026564833
-0.04652203 -0.030748032 0.02886194 -0.008216861 -0.059352033 -0.035680957 -0.041519314 0.014866361

a2c_network.mu.weight f4 [6, 128]
00000000: 5089 8fbd 990d 57bb 0f85 cd3d b072 c83c
00000010: e91c 0bbd 21b0 d53c 641a 81bb 3967 fd3c
00000020: 1938 273d 8847 a3bc 9758 4ebd 3173 8fbd
00000030: ea80 883d 8453 80b7 ea2b c23c 4e0c edbc
00000040: 9553 1c3d a5d7 103b 4231 b13d abab 253d
00000050: 6701 343b 46df 533a 9a2e 2d3d 8098 babb
00000060: bb74 84bc 7276 1cbd 5ff1 233d ebf6 a53c
00000070: a889 1c3d 2e9e e3bd 50da db3c 90ac 2ebd
00000080: 26c7 1abc 0b3c 2abd 0c61 8dbd 64a1 613d
00000090: 0e62 19bd 7507 8b39 e5b3 a83c 60c8 fc3c
000000a0: 2ef6 a33d 1067 813c 386a b53c ec2c 6ebc
000000b0: 05e5 02bd 76ac a5bb 3250 97bc 40bb 2c3d
000000c0: 99c7 983d 364e 94bc a7d3 dc3c edd9 fe39
000000d0: 76d7 7a3d 62b8 853c d601 40bd bb28 92bc
000000e0: 5b5c 44bd 8bea c13c 92c9 e0bc 6c9f a33c
000000f0: 99e3 4c3c 5618 e5bc fa12 9abb 30ec a03c
00000100: 4eee 5c3c 22bd 6bbd fd03 80bd 226f d7bc
00000110: 0688 78bc 3c8b 5e3c ba85 ab3c 4e35 513c
00000120: abc9 0cbc c30e 83bb 8437 843c 36f1 4dbd
00000130: 9c12 acbc 56bd 3f3d 14a9 7abd 8edc 0dbd
00000140: 3de8 16bc 76ae 92bd 39e7 ac3c 37bd d83c
00000150: 4ceb 853c 1bcc 753d d3a9 02bd c1d6 c93c
00000160: d974 dabb 0792 303c acc4 01bd fdba cfbc
00000170: 2015 513d 9bf5 fe3a d46c 593d 95a1 4d3c
00000180: 7a93 6cbd b592 c8bc d025 d9bc fb94 fa3c
00000190: b768 9f3d 9d97 c23b 1244 4f3c ae94 313b
000001a0: 8b10 52bd 1a87 20bd e6f5 3a3d 8b92 f83b
000001b0: bc4e 483d c317 d73c 4c53 3cba cf84 2bbd
000001c0: c342 c9bb 8626 0a3d 00d2 0ebd 0efb 4a3d
000001d0: 8dd8 103d 2c7a e63c caaf c13d 61a3 0d3d
000001e0: 3f05 be3b 177d d13c 56e2 e0bc 69c9 9d3b
000001f0: e232 3abd 7612 153c ea50 10bc aae6 043d
00000200: 9c8b 82bd aa47 aebc 4027 6c3d fbea 913d
00000210: 308a 953b d146 f13c e3de 033d f4ca ab3c
00000220: b226 673b b948 ca3b e729 9bbd 634f 583a
00000230: e45f 3d3d 504e 2bbd 6dda debc 8b01 c23c
00000240: e56d 073d 1159 083b 988d 05bb 9c4b 1c3d
00000250: 3542 373d 6709 4abd 4da7 7abc 9d8b 133d
00000260: 1601 a1bc 1e8f 373d cf29 d93c 4da2 813d
00000270: ec11 0b3c 2eb0 57bd 6fdb dcbc f1d7 cc3c
00000280: c74b 46bc 2ff1 f23c 3adb 483d badc b63a
00000290: 5ae4 06bc 10da f3bc 64ff d73c 0f4c be3b
000002a0: 9bb5 7b3d 64ea 593d 3a77 04bc 04b5 b73b
000002b0: 604a 313c 4fe3 a03c 9450 e83c e8cf 363d
000002c0: 16d1 303d b030 133d 7e43 ca3c f530 16bd
000002d0: cd46 8abc 8c3a f03a 567e 4ebd 30d4 bcbc
000002e0: 8962 7a3c ad81 dabc 37c2 ba3c 41e9 1cbc
000002f0: 8257 d5bb c852 a0bc e9db 7b3b ee48 dcbc
00000300: a3b3 3a3b 5ea1 9ebd bbd0 d8bb f78a 4d3b
00000310: 810f 05bc 1f3d 0f3b f7d7 f23c 018e 9dbc
00000320: 7652 b7bb 3710 983c d132 0dbc 5e1b 80bd
00000330: effa 3ebd a137 bf3b aa32 c83b 1c9f 273d
00000340: a1f9 81bc c8ba 28bd b1ef fa3c 54ca d1bc
00000350: 4f3b 93bc 989b c13b a3f2 96bc 5f4f d73d
00000360: 96e8 79bc f1b3 81bd 94f6 9cb8 70d7 63bb
00000370: 532a a43b 5ed2 913c bbaa 2f3b 8b35 423c
00000380: e216 113e b558 1dbd 3cf5 5d3d 82ff 8fbc
00000390: 1bdc 003d 4060 943d e70d e039 291e e8bc
000003a0: b411 0dbd 0234 af3b 94c0 863d 04a8 fb3c
000003b0: c6cb f9bc 8bb0 83bb e422 83bb 0d3c 3c3b
000003c0: cd66 dcbc 6610 cdbc 92f0 0bbd 762f b53c
000003d0: 5eda 873c 8414 473d 0e1e 76bc e357 f43c
000003e0: ed5a 463d 6d28 bf3c 6076 8bbb 7cb5 583b
000003f0: 809c 6abc 4e89 643c f185 c23b d27b 4e3c
-0.07008612 -0.0032814501 0.100351445 0.02446875 -0.033963118 0.026084961 -0.0039399136 0.03093301
0.040824983 -0.01993157 -0.050377455 -0.07004393 0.066652134 -1.5297679e-05 0.02370258 -0.028936531
0.038165648 0.002210119 0.08651973 0.04044692 0.0027466656 0.00080822816 0.04228077 -0.005694449
-0.016168943 -0.038198896 0.04002511 0.020259341 0.038217217 -0.11114155 0.026837498 -0.042645037
-0.009446895 -0.041561168 -0.06903276 0.055085555 -0.037447028 0.00026517702 0.020593593 0.030857265
0.080059394 0.015796214 0.022145376 -0.014537077 -0.03195669 -0.0050559593 -0.018470857 0.042170763
0.07459945 -0.0181037 0.026956392 0.00048609023 0.061240636 0.016323272 -0.04687675 -0.017841687
-0.04793964 0.02367141 -0.027439866 0.01997348 0.012505435 -0.027965706 -0.004701969 0.019643873
0.013484551 -0.057553418 -0.06250761 -0.02629811 -0.015169149 0.013583001 0.02093779 0.0127690565
-0.008593003 -0.0039995625 0.016139753 -0.050278865 -0.021004967 0.046811424 -0.0611964 -0.034634165
-0.009210643 -0.07162182 0.02110635 0.026457412 0.01634755 0.060009103 -0.03190024 0.024638535
-0.0066667614 0.010777003 -0.0316817 -0.025357718 0.051045537 0.0019451858 0.053082302 0.012550731
-0.057757832 -0.024484018 -0.026507288 0.030588618 0.07783645 0.005938484 0.012650507 0.0027096677
-0.051285308 -0.039191343 0.045644663 0.0075858287 0.048903212 0.026256448 -0.0007184043 -0.041874703
-0.006141992 0.033728145 -0.03486824 0.04955583 0.03536277 0.028134428 0.09457357 0.03457964
0.005798965 0.025572343 -0.027451675 0.0048152697 -0.045458682 0.00909864 -0.008808354 0.03244654
-0.063742846 -0.021274406 0.05765462 0.07124897 0.0045635924 0.029452713 0.032194983 0.020970799
0.0035270867 0.00617322 -0.075763516 0.00082515756 0.046234027 -0.04182273 -0.027203763 0.023682376
0.033063788 0.002080504 -0.0020378586 0.038158044 0.044740874 -0.049325373 -0.015298677 0.036021817
-0.019653838 0.04481422 0.026509194 0.063297845 0.00848816 -0.052658252 -0.026960103 0.025005313
-0.012103028 0.02965602 0.049037196 0.001395128 -0.008233154 -0.029767066 0.026366897 0.0058074067
0.06145249 0.053202048 -0.008085066 0.0056062955 0.010820955 0.01963964 0.028358735 0.04463187
0.04316815 0.035935104 0.024690386 -0.036667783 -0.016879464 0.0018327995 -0.050413452 -0.023050398
0.015282282 -0.026673162 0.022797687 -0.009577096 -0.006510676 -0.019570723 0.0038430637 -0.026890244
0.002848842 -0.07745622 -0.0066166795 0.0031363347 -0.008121372 0.00218565 0.029643996 -0.019232752
-0.005594547 0.01856242 -0.008618073 -0.0625522 -0.046626028 0.005835489 0.0061095553 0.040923223
-0.015866103 -0.041193753 0.030631872 -0.025609173 -0.017972616 0.005908441 -0.018426245 0.10513186
-0.015253207 -0.06333149 -7.4845884e-05 -0.0034765862 0.0050099283 0.017800506 0.0026804644 0.011853586
0.14168885 -0.038414676 0.05418895 -0.01757789 0.03145991 0.07244921 0.00042734967 -0.028334694
-0.03444071 0.005346776 0.065797 0.030719765 -0.030492675 -0.0040188483 -0.004001962 0.0028722316
-0.026904488 -0.025032233 -0.034164973 0.022117358 0.016583618 0.04860355 -0.015021814 0.029827064
0.048426557 0.023334706 -0.0042560548 0.0033067157 -0.014319539 0.013948752 0.005936377 0.012602763

a2c_network.mu.bias f4 [6]
00000000: 1d00 4abd 6a0e debc 7f49 c13d e1d9 e2bd
00000010: d12a eebc 2fd0 aa3c
-0.049316514 -0.027106483 0.094378464 -0.11076713 -0.02907315 0.020851223

exp_avg f4 [6]
00000000: 7555 27bb b78c b53a fa06 adb9 943e 1f3b
00000010: 006a 033c 9146 d33a
-0.0025533114 0.001385114 -0.0003300233 0.0024298774 0.008020878 0.0016119053

exp_avg_sq f4 [6]
00000000: 88e1 8837 d06f b837 8f22 8238 cfd3 0638
00000010: 1bce 7a38 1ba5 2738
1.6317485e-05 2.1986576e-05 6.20532e-05 3.214535e-05 5.9796595e-05 3.996967e-05

exp_avg f4 [256, 20]
00000000: 0bff acb8 3e67 76b8 ed0e 9838 9e93 18b9
00000010: 2ba1 c838 d964 5338 3e24 cd35 caa7 8a37
00000020: 1e47 f8b7 bdec 5ab8 b5ec b8b8 b751 cc38
00000030: 1bab 9cb7 e7c2 e8b8 b187 c9b8 92ef 3536
00000040: 2555 1fb9 1ffd 9ab8 1e84 4cb9 3e34 2839
00000050: 7d45 d337 b0ee d738 4510 0bb9 1fd8 8438
00000060: eeff 07b9 41e5 41b9 22c0 87b8 de1f 8337
00000070: 0e43 6138 95b8 0e39 3cbe 3438 b919 1ab9
00000080: d5e4 1b37 11e7 f3b7 4b60 ff37 43a8 94b7
00000090: 7e70 3bb7 01ef 2c39 aad7 c4b5 5360 8338
000000a0: ada5 2f3a abb0 a838 ea8c c0b9 d8ea 9c39
000000b0: e9b3 1b38 b9ca 14ba 6bf2 fab7 3593 4136
000000c0: ef15 6cb8 2484 abb8 310c 4bb8 f1b2 4936
000000d0: fab6 e9b8 7417 d638 29ed 4939 58e2 22b9
000000e0: b186 e539 8f44 c039 2cf4 4039 97cc adb9
000000f0: c876 29b9 85b4 66b8 117e 9ab8 3fca 2b38
00000100: 402b aa37 5878 71b8 b7e9 deb8 6a4c e7b7
00000110: c299 dab8 b660 3238 ddad 11b8 e552 1fb8
00000120: 6ada 1139 f931 a038 93cd ddb8 11be fa37
00000130: d5dc b7b6 e2b7 eb38 583d e838 ec8e 0039
00000140: e0de d7b9 beda f1b8 7f58 8239 8a4d 5eb9
00000150: 8c4e 5a37 3705 8a39 39cc 9cb6 5d11 2e38
00000160: c149 1ab8 8787 a738 2e1b 2bb8 779e 1cb8
00000170: 998e ef35 dced 7838 fe77 78b9 3092 6d38
00000180: e414 6fb9 7e06 94b9 06a1 8938 6949 7038
00000190: fa1e 0339 2cbe ad38 cc20 09b9 ea12 0139
000001a0: 0c77 cfb8 2dac a637 b6d7 ae38 f2e6 b6b7
000001b0: 21ae 79b8 bc33 c636 fe10 2fb7 2fd0 a0b8
000001c0: c82f d237 5dc7 1239 e918 bd36 1835 6db8
000001d0: 602d 3c39 b13d d338 8570 0e39 2e01 02b9
000001e0: ce23 a139 450f 4739 5707 d8b9 d77a bd39
000001f0: 37e8 ffb7 b270 c1b9 28f7 25b7 07b6 dcb7
00000200: ba55 5e38 4be3 ac38 97e8 7a37 4466 28b9
00000210: 2e50 e937 ed1a 4a39 6108 8539 6f67 35b9
00000220: ffab da39 e960 f039 d1c2 1c39 e5ae 34b9
00000230: 2260 ff39 30c4 ca39 81bd c0b9 51c1 f239
00000240: 737f 19b9 fea0 97b9 3643 9db8 98b7 8fb8
00000250: 7a9d df38 9e24 93b8 9899 5e39 6bfa 8cb9
00000260: bece beb8 c31a 8839 7598 7739 ce9b 17b9
00000270: 923f da39 aade 8c39 31f3 2839 5901 b7b9
00000280: 5928 5339 4c8d 02b8 f6d4 5336 31fa 6c38
00000290: 4e43 8837 9dc7 b7b9 99c6 ebb8 eb70 e538
000002a0: e167 3bb8 bc3f b2b8 2041 ed38 3564 56b7
000002b0: 0d7c 95b8 b5c8 d438 6b72 b8b7 c040 8238
000002c0: e6a5 83b6 cbd2 11b8 cc3e 8e38 7c00 dfb8
000002d0: 8d75 8cba 35a6 dbb9 1730 343a a6e7 28ba
000002e0: fef6 0539 bbdc 5a3a 5c17 2738 f04b c5b8
000002f0: 7f3b 2fb9 cadc 5d38 be48 5cb9 52bd 5d39
00000300: 02a4 0b39 c721 88b9 5ba3 15ba f416 6d39
00000310: b74a 48ba 59ae 29ba b48b 90b9 1f49 203a
00000320: 9911 9ab9 f613 4ab8 af88 4339 66bf 72b8
00000330: 0193 2237 3eb8 8739 f88e ecb6 0451 a537
00000340: b793 1637 5fa0 8238 0e39 aab7 d088 3fb4
00000350: cba0 8638 bf99 46b8 3ac4 98b7 35a8 7538
00000360: c94a 27b9 c36d 7ab9 b8a1 eb37 acf5 6e37
00000370: dfaa a5b9 1713 9bb9 9aaf a639 ce8e 79b9
00000380: 12c9 0c37 a644 9239 73ab 0b38 abb4 9738
00000390: 70c4 d7b8 57aa ae38 b572 8eb8 d660 03b8
000003a0: 892d f937 deb7 f2b7 63dd 82b9 ce94 1b39
000003b0: 4586 b8b9 2679 c8b9 a22d 88b7 d862 1c39
000003c0: f883 263a 80a8 fa39 2b58 17ba cd0a 1c3a
000003d0: 04b8 e1b8 5044 e4b9 7eec 1bb8 e740 b2b7
000003e0: cb69 1c39 25cf 93b8 c404 0d39 42e1 63b8
000003f0: 5816 a8b8 0404 7a39 50b1 b739 bb4e 46b9
-8.2491046e-05 -5.8747122e-05 7.250705e-05 -0.00014550841 9.566763e-05 5.0400242e-05 1.5284238e-06 1.6529015e-05
-2.959702e-05 -5.219573e-05 -8.817894e-05 9.7426986e-05 -1.8676326e-05 -0.000110989255 -9.6097014e-05 2.711055e-06
-0.0001519514 -7.39044e-05 -0.00019504174 0.0001604119 2.5185518e-05 0.00010296458 -0.00013262134 6.334506e-05
-0.00012969945 -0.00018491318 -6.473089e-05 1.5631256e-05 5.370663e-05 0.00013610937 4.3092514e-05 -0.00014696167
9.291999e-06 -2.9075456e-05 3.0443209e-05 -1.7721328e-05 -1.117226e-05 0.00016492234 -1.4665904e-06 6.2645086e-05
0.0006700408 8.043771e-05 -0.00036726083 0.0002992961 3.7122434e-05 -0.000567596 -2.9915207e-05 2.8844927e-06
-5.6287212e-05 -8.1785285e-05 -4.8410326e-05 3.0055492e-06 -0.00011144388 0.00010208684 0.00019257203 -0.00015533844
0.00043778637 0.00036672174 0.00018401508 -0.00033149563 -0.00016161345 -5.5004395e-05 -7.366774e-05 4.0957933e-05
2.0285719e-05 -5.7570956e-05 -0.00010629318 -2.7572929e-05 -0.0001042369 4.2528576e-05 -3.4732617e-05 -3.7985756e-05
0.00013909643 7.638703e-05 -0.000105763924 2.9890829e-05 -5.4795332e-06 0.00011239924 0.00011074048 0.00012260274
-0.0004117405 -0.000115325194 0.00024861467 -0.00021200455 1.3012101e-05 0.00026325296 -4.672937e-06 4.1501004e-05
-3.678515e-05 7.9884245e-05 -4.079489e-05 -3.734088e-05 1.7848389e-06 5.934933e-05 -0.00023695824 5.664135e-05
-0.00022800599 -0.00028233597 6.562662e-05 5.7288828e-05 0.00012504673 8.284705e-05 -0.00013077556 0.00012309445
-9.8927034e-05 1.9868918e-05 8.337146e-05 -2.1803633e-05 -5.9528396e-05 5.9068825e-06 -1.0434769e-05 -7.668172e-05
2.50562e-05 0.00013997914 5.635539e-06 -5.655465e-05 0.0001794598 0.00010072755 0.00013584092 -0.00012398206
0.0003073499 0.00018983807 -0.000412042 0.00036140412 -3.0506502e-05 -0.00036895793 -9.892312e-06 -2.6310807e-05
5.3008764e-05 8.243936e-05 1.4955315e-05 -0.00016059825 2.7813101e-05 0.00019274252 0.0002537398 -0.00017300037
0.00041708347 0.0004584857 0.00014949894 -0.00017231291 0.00048709015 0.00038674613 -0.00036762285 0.0004630187
-0.00014638696 -0.00028920913 -7.4988624e-05 -6.852968e-05 0.00010662801 -7.016327e-05 0.00021228788 -0.00026889457
-9.098415e-05 0.0002595988 0.0002361255 -0.00014458524 0.00041627564 0.00026868779 0.00016112324 -0.00034905484
0.00020137559 -3.112601e-05 3.156541e-06 5.6499794e-05 1.6243805e-05 -0.00035053203 -0.00011242665 0.000109406035
-4.468102e-05 -8.499573e-05 0.00011313171 -1.2778725e-05 -7.12798e-05 0.00010146332 -2.198779e-05 6.210944e-05
-3.9234174e-06 -3.476701e-05 6.7827845e-05 -0.00010633559 -0.0010716185 -0.0004189477 0.0006873621 -0.000644321
0.0001277588 0.00083489314 3.9837658e-05 -9.4078365e-05 -0.00016711465 5.2896132e-05 -0.00021007934 0.0002114673
0.0001331717 -0.00025965107 -0.0005708241 0.00022610632 -0.0007640528 -0.0006472818 -0.00027569907 0.00061144115
-0.0002938628 -4.8179143e-05 0.00018647568 -5.787555e-05 9.6901795e-06 0.00025886478 -7.049992e-06 1.9707259e-05
8.975089e-06 6.2287545e-05 -2.0292147e-05 -1.7838033e-07 6.419568e-05 -4.7350066e-05 -1.8211187e-05 5.8569207e-05
-0.0001595422 -0.00023882747 2.808949e-05 1.4243105e-05 -0.0003159856 -0.00029578127 0.0003179282 -0.0002379969
8.391466e-06 0.00027898437 3.3299857e-05 7.233893e-05 -0.00010288588 8.328695e-05 -6.7924535e-05 -3.132302e-05
2.9704317e-05 -2.8934268e-05 -0.00024960478 0.00014837386 -0.00035195253 -0.00038237235 -1.6233713e-05 0.00014914142
0.00063520623 0.00047809258 -0.0005773331 0.0005952537 -0.00010763112 -0.00043538446 -3.717513e-05 -2.1249476e-05
0.0001491673 -7.04809e-05 0.00013448583 -5.4330805e-05 -8.015026e-05 0.00023843354 0.00035036588 -0.00018912081

exp_avg_sq f4 [256, 20]
00000000: b72f c335 1a9e 5835 2305 ae35 fcb7 d135
00000010: 7a40 5d35 902f 3535 ac86 6834 d1c0 6434
00000020: 78ac 0134 7572 a234 43f3 5234 dc4c 4d34
00000030: a219 4134 4214 9334 4615 2035 3a17 c034
00000040: 85e6 9b35 2af7 a235 7601 dd35 59ee 0136
00000050: c94e 8536 9d26 0636 9f86 7036 6992 9636
00000060: ffd7 8a36 3db4 0236 b804 5635 8fba 5935
00000070: 0bce 1035 4484 da35 0d88 5a35 0233 9235
00000080: 108f 3a35 2fe6 6335 9f57 b835 46ea 9a35
00000090: 72f2 6836 dd60 9236 f358 9736 fed1 a836
000000a0: 5a8d d435 ffce 1635 3b84 ba35 f56c c735
000000b0: 2824 0d35 bfa5 6235 7ef4 f133 c35f ab33
000000c0: a8bf 0b34 f50e 9b34 1c05 2a34 7099 0e34
000000d0: 2938 1934 f03e 1f34 1d70 e134 7da3 ac34
000000e0: d532 8735 cb29 8435 fc93 8f35 6ef4 ac35
000000f0: 1408 3e36 4e1a ba35 e9d1 8136 4a8a a736
00000100: 2180 a535 51b7 d135 fef2 3d34 afb5 8f34
00000110: 90c3 b034 f6f5 2035 86ff 8034 7b4e a034
00000120: 353e 5934 2b5f 9c34 af6e 8d35 d35a 1335
00000130: 691e 0e36 f282 3236 3551 1b36 b3a5 3d36
00000140: 454c a536 ebb5 5436 75b4 ae36 cccd dd36
00000150: 591a 8136 67b1 1a36 5825 5635 d8a0 1735
00000160: 5214 0835 ea38 9535 9c24 3735 2e20 7235
00000170: 6333 4635 e52e 1235 b88b e035 2a54 b635
00000180: e977 cd36 0175 9d36 3198 d436 05ea c436
00000190: 5ca1 4236 cc37 ad35 9f1d d435 65c1 2736
000001a0: c93f 1136 4470 9335 f8d6 be34 b6fc a834
000001b0: 670d 8034 10a4 3335 8b2a 5c34 77da 1335
000001c0: 7415 c634 db68 f134 7b01 4935 7cf9 e934
000001d0: 8009 6d36 6ac4 1e36 78ba 5236 f01d 4d36
000001e0: 5340 8635 1f37 1435 0ad5 8835 17ae a235
000001f0: 9e7a cb34 9dfa 5235 2e1c b233 a26a 8e33
00000200: f0ec c933 cd2a 0034 a1a4 fd33 02f4 f933
00000210: 0a61 0034 63be 6533 f72f 9934 04e1 8734
00000220: 91b0 2935 a68d 3a35 41dd 9035 24b6 cc35
00000230: ad7e d336 2052 2636 25d8 9836 79b3 df36
00000240: 91f2 a936 efc6 3936 e74a 6235 a132 1335
00000250: f15b 3035 6268 fc35 f5db 4135 34f5 b535
00000260: d185 4e35 f35c 6235 d5d5 de35 d6ef 4a35
00000270: dbe8 0337 2708 ad36 3f31 d336 94d7 b936
00000280: 26e4 2236 8d57 8135 8b8f fa35 d88f 2536
00000290: 53cf b835 1dc7 7235 3418 8634 a11e 5234
000002a0: d69e 5934 5a60 0235 96fd 9434 f3c0 9c34
000002b0: 1ff8 7a34 a033 9b34 d3a6 2435 3538 1935
000002c0: 4e17 3236 2078 0036 dc3b 1936 2cf0 0a36
000002d0: 4fd5 dd36 e337 2736 403d 9b36 2a2a cf36
000002e0: c959 a036 e888 1d36 90d1 8e35 df34 2235
000002f0: 7529 1435 71db b835 bc7d 5c35 ff71 a835
00000300: 0d7a 6335 2f90 5d35 6651 d535 18d5 2435
00000310: 77d1 c736 2b44 a636 a345 c036 e31c c236
00000320: 9a3d be35 08a6 2735 b63b 7f35 51c0 a335
00000330: 967b 9235 b768 5c35 d93a fa34 8acc 2d35
00000340: c4bf 1c35 4a3a b035 035c b334 05a0 9234
00000350: b4f0 4034 b964 2035 c2b3 9535 d1e6 6235
00000360: 687b 2436 4c51 3d36 7729 9335 5ac3 8635
00000370: a5b6 2337 35bc be36 beee 1b37 d6d1 4137
00000380: f0c6 0c37 e27f 9336 d77a e735 c08e 8e35
00000390: da83 8635 3401 1e36 8d03 b635 5969 0036
000003a0: ec12 c335 320b 9435 b83b 3636 be8b 4936
000003b0: 628a 3e37 91d6 0c37 4372 4337 9021 3437
000003c0: 722f 3b36 3d65 8035 bdd3 0736 9f49 2936
000003d0: d77e bd35 26c3 b235 6364 6234 85b8 0c34
000003e0: 5226 1734 a2ad ef34 e6a8 6f34 3ad3 9834
000003f0: 6aec 5634 023a 8434 06c0 0b35 167f 9734
1.4542519e-06 8.069634e-07 1.2965505e-06 1.562526e-06 8.242274e-07 6.7496967e-07 2.1655677e-07 2.1304301e-07
1.2076805e-07 3.025813e-07 1.9646272e-07 1.9120074e-07 1.7983851e-07 2.7395623e-07 5.96356e-07 3.5779686e-07
1.161549e-06 1.2141875e-06 1.6466208e-06 1.9361235e-06 3.9728807e-06 1.9990032e-06 3.5841147e-06 4.4873927e-06
4.1378657e-06 1.9476422e-06 7.972808e-07 8.111028e-07 5.394401e-07 1.628076e-06 8.140931e-07 1.0892693e-06
6.9498583e-07 8.489905e-07 1.3734569e-06 1.1542077e-06 3.4711816e-06 4.3624154e-06 4.5105057e-06 5.0312365e-06
1.583637e-06 5.6180573e-07 1.3896564e-06 1.4858366e-06 5.257921e-07 8.4432753e-07 1.126691e-07 7.980227e-08
1.3015108e-07 2.8881882e-07 1.5834343e-07 1.3280601e-07 1.4269666e-07 1.4830925e-07 4.199109e-07 3.215645e-07
1.0073078e-06 9.84693e-07 1.0697399e-06 1.2886137e-06 2.8316908e-06 1.3865736e-06 3.8689363e-06 4.993087e-06
1.2330748e-06 1.5625066e-06 1.7690397e-07 2.6768018e-07 3.2924845e-07 5.9962565e-07 2.4027776e-07 2.9859424e-07
2.023233e-07 2.9126508e-07 1.0537532e-06 5.4893934e-07 2.117735e-06 2.6600287e-06 2.3144069e-06 2.8259644e-06
4.926262e-06 3.1696352e-06 5.206612e-06 6.610271e-06 3.847567e-06 2.305105e-06 7.9775555e-07 5.648594e-07
5.069352e-07 1.1117929e-06 6.8226086e-07 9.019885e-07 7.3835525e-07 5.445748e-07 1.6729964e-06 1.3584552e-06
6.1234355e-06 4.6925857e-06 6.3358098e-06 5.8684986e-06 2.9002176e-06 1.2905743e-06 1.5803852e-06 2.499751e-06
2.1643812e-06 1.0985027e-06 3.5546668e-07 3.147631e-07 2.385161e-07 6.692144e-07 2.0504574e-07 5.5079676e-07
3.6895983e-07 4.496604e-07 7.488049e-07 4.3581156e-07 3.5321282e-06 2.3658163e-06 3.1400978e-06 3.0564806e-06
1.0002499e-06 5.521451e-07 1.0194792e-06 1.2120607e-06 3.7900912e-07 7.8595787e-07 8.293897e-08 6.631787e-08
9.4028906e-08 1.19365e-07 1.18111764e-07 1.1639351e-07 1.1956232e-07 5.3491373e-08 2.853337e-07 2.530943e-07
6.3214344e-07 6.9496525e-07 1.0793229e-06 1.5252194e-06 6.303037e-06 2.478373e-06 4.5551155e-06 6.6668113e-06
5.064831e-06 2.7682943e-06 8.430056e-07 5.483544e-07 6.56989e-07 1.8805843e-06 7.221818e-07 1.3556914e-06
7.693571e-07 8.432682e-07 1.6602522e-06 7.559987e-07 7.862424e-06 5.156751e-06 6.294023e-06 5.5385262e-06
2.427268e-06 9.63673e-07 1.8668228e-06 2.4670644e-06 1.3769408e-06 9.0441773e-07 2.4977055e-07 1.9568917e-07
2.0267484e-07 4.8568984e-07 2.7751656e-07 2.9197653e-07 2.337333e-07 2.8908562e-07 6.133752e-07 5.7078734e-07
2.6537632e-06 1.9143408e-06 2.283362e-06 2.07034e-06 6.6111456e-06 2.491747e-06 4.6264904e-06 6.1739893e-06
4.778824e-06 2.3474513e-06 1.0640815e-06 6.042664e-07 5.5194624e-07 1.3772934e-06 8.2139354e-07 1.2550153e-06
8.4741697e-07 8.253873e-07 1.5893427e-06 6.1404853e-07 5.955047e-06 4.9551213e-06 5.7301527e-06 5.7850134e-06
1.4174032e-06 6.2453955e-07 9.5081793e-07 1.2200418e-06 1.0913816e-06 8.2108767e-07 4.6608946e-07 6.4745166e-07
5.8393584e-07 1.3129986e-06 3.3408296e-07 2.731105e-07 1.7968961e-07 5.9751216e-07 1.1153681e-06 8.452744e-07
2.4509736e-06 2.8210516e-06 1.0964421e-06 1.0040633e-06 9.758082e-06 5.6843514e-06 9.294306e-06 1.1552553e-05
8.390969e-06 4.395829e-06 1.7246592e-06 1.062137e-06 1.0022152e-06 2.3544535e-06 1.356109e-06 1.9134807e-06
1.4534139e-06 1.1030118e-06 2.7154874e-06 3.0032675e-06 1.1357102e-05 8.394608e-06 1.1649509e-05 1.073665e-05
2.7892788e-06 9.566207e-07 2.0239816e-06 2.5225816e-06 1.4118513e-06 1.3318829e-06 2.108441e-07 1.3105644e-07
1.4076912e-07 4.4643554e-07 2.2320054e-07 2.8465894e-07 2.001631e-07 2.4629122e-07 5.2060966e-07 2.821841e-07
