logs/rl_games/rocket_direct/2026-02-19_18-11-41/nn/rocket_direct.pth (torch, 490757 bytes, 30 tensors)

value_mean_std.running_mean f8 [1]
14.813695566883792
00000000: 0755 91b4 9ca0 2d40

value_mean_std.running_var f8 [1]
54.036562852677626
00000000: db3f 7017 ae04 4b40

value_mean_std.count f8 []
2129921.0
00000000: 0000 0080 0040 4041

running_mean_std.running_mean f8 [22]
-0.1781418532891845 -0.2162296001323274 0.147667744762145 -0.07498958716860205 0.15093751762003343 0.01985880653421545 0.05476084303459569 0.0609658924796729
-0.048816919292529314 -0.0030264977388004296 -0.1830435142502798 -0.1603022208356177 -0.11601489431078454 0.03587453078660183 0.03200428855629702 0.10753352111467887
-2.186535986587084 4.47001500744511 0.9430197471359865 -0.21083962811893758 -0.0383405616095068 0.14408207569324463
00000000: 2783 f62c 5acd c6bf a86c 7f5a 69ad cbbf
00000010: eeb7 36d3 c6e6 c23f f8ff 6d80 8432 b3bf
00000020: 926f f5aa eb51 c33f de7e 68f2 dd55 943f
00000030: 6cb5 defb 9c09 ac3f 9348 bee4 eb36 af3f
00000040: 53ad b4ff 87fe a8bf 87f6 e799 06cb 68bf
00000050: 1195 b949 f86d c7bf f789 fb7d c884 c4bf
00000060: 4ce9 e9f0 26b3 bdbf ecc0 f980 255e a23f
00000070: a3b1 5cb9 dd62 a03f 1249 691c 5187 bb3f
00000080: 5659 4f94 067e 01c0 7d6c 369d 4be1 1140
00000090: d0cc adbf 372d ee3f aa5e bcfd cafc cabf
000000a0: cc3a 72c4 5fa1 a3bf 8169 850d 4871 c23f

running_mean_std.running_var f8 [22]
0.02868715153352052 0.01426703335992988 0.005883945464005868 0.021828637539511683 0.004200188328915935 0.02089479387159836 2.3999544409476044 2.2555020215467048
1.4438147883172718 1.813536540180934 1.2205482782782382 1.5184779729076587 1.6486162019272694 0.25555214244202623 0.7291197962393017 7.756378815833129
13.048698225549352 1.8447327836101142 0.0019131535068716585 0.006630120691069579 0.0033665988707870156 0.0321260036968513
00000000: fe82 9b26 2a60 9d3f 52e3 88cd 0838 8d3f
00000010: 26fd 6d95 c319 783f 9ccd 6411 3f5a 963f
00000020: b6df 2778 3734 713f 6d38 57e1 7165 953f
00000030: 5314 5e50 1b33 0340 02d7 d4a4 440b 0240
00000040: 8ddc 1489 dd19 f73f 81d9 22e4 3e04 fd3f
00000050: 664e a6a1 5d87 f33f 365b 158f af4b f83f
00000060: 05ef ee61 bb60 fa3f e584 8d5f f75a d03f
00000070: f6d8 f609 f354 e73f de8f 152b 8806 1f40
00000080: 2437 4cf9 ee18 2a40 886e f785 0684 fd3f
00000090: 09a7 a1ef 5858 5f3f 5f3a 9678 2f28 7b3f
000000a0: ac9c 8f01 4594 6b3f 5653 75ce d172 a03f

running_mean_std.count f8 []
1064961.0
00000000: 0000 0000 0140 3041

a2c_network.sigma f4 [6]
-0.82797116 -0.7018657 -0.6602712 -0.6633041 -0.49719062 -0.4761871
00000000: ebf5 53bf 78ad 33bf 8907 29bf 4cce 29bf
00000010: c58f febe ccce f3be

a2c_network.actor_mlp.0.weight f4 [256, 22]
-0.076886654 0.08835289 -0.18127134 -0.11168718 -0.069706194 -0.094857536 0.025543878 -0.18980628
0.18716332 -0.20374942 0.14566782 0.052845106 -0.047269005 0.1357357 -0.0302353 0.15115048
0.017278267 -0.06392131 0.15891321 -0.014525382 0.074738435 0.27696466 0.11287332 -0.06896357
0.1122259 0.0773686 0.044384982 -0.13978091 -0.13930435 -0.107750125 -0.18315376 0.10620013
0.012710628 0.11319989 0.09560859 -0.031487133 0.09407789 -0.06427232 0.095235825 -0.18448713
0.07955441 -0.08296431 0.008318225 -0.012171691 0.16140237 -0.049839213 -0.07558326 -0.10889662
0.083175905 -0.023088181 0.20512566 -0.1060993 -0.14419442 -0.08192597 -0.13303497 0.050633084
0.11211891 0.11393906 -0.15379189 -0.08037732 0.13345991 -0.04985445 0.16861814 -0.0065599196
0.1325396 -0.32432565 -0.13103326 0.027803162 0.047993086 -0.024325725 0.16456152 0.15063709
-0.1271219 -0.06208962 0.19243647 -0.10692656 -0.12198753 -0.24348941 -0.2432484 0.08907252
-0.06723981 -0.081172824 0.028108696 -0.13246943 -0.12839724 -0.14886798 -0.14293283 -0.13243318
0.20218174 0.07611471 0.0677916 -0.20913959 -0.13422357 -0.1361011 0.052339338 -0.23003311
-0.09332527 -0.07707107 -0.09046007 -0.08410089 -0.0012020101 -0.1620912 -0.1841222 -0.038912825
-0.057032652 -0.09925001 0.20188534 -0.057315066 0.15185034 0.030778946 -0.16941285 -0.0014782232
0.0007353559 -0.053577986 -0.2196409 -0.13869031 0.07296841 0.044023477 0.13900468 -0.10529722
0.15402143 -0.10325082 -0.13607644 0.16385207 0.054073796 0.094958305 0.11873906 -0.13120225
-0.10308347 -0.12448455 -0.03518069 -0.15338133 0.20893487 -0.14200847 0.10578173 0.09689192
0.06581979 -0.10397198 0.18475127 0.0015253648 0.025572533 -0.16970907 0.06607395 -0.021032343
-0.1216184 0.14655244 0.017781662 -0.072812006 -0.070085175 -0.029418997 0.21861815 -0.0433992
-0.13103516 -0.075457156 -0.069902405 0.029418513 0.02374388 -0.22097987 0.060889896 0.06445761
0.058112502 -0.03040922 -0.0040513817 0.094121635 0.0041143303 -0.04986778 -0.04801472 0.0095824
-0.064240046 -0.016326718 0.20225793 0.055124942 -0.13170637 -0.0057965554 0.08000647 -0.11471507
0.053189263 0.047452807 -0.1997889 -0.10835815 0.16090088 0.037962638 -0.021822382 -0.1390791
-0.11499498 -0.1264239 -0.07463299 0.046360407 0.08311521 0.053150576 -0.15200216 -0.09356346
-0.013174727 0.17766304 0.1064227 -0.044266947 0.0851893 -0.102285534 -0.13901368 0.08926572
-0.1660864 -0.19695729 -0.25214857 0.1274158 0.16086838 -0.01991372 -0.14587362 -0.2494202
-0.16764052 0.12149836 -0.058305327 0.08861136 0.13710381 0.050900646 -0.055050157 -0.13631587
-0.25990793 -0.28548947 0.06254945 -0.10770379 -0.046041477 -0.05246388 -0.056545462 -0.12144573
-0.13105625 0.022790961 -0.008217169 0.068709865 -0.057223916 -0.12578501 -0.0067038564 -0.09261021
0.004368442 -0.17159353 0.030465363 -0.09580009 0.13288356 0.079780914 0.2133553 -0.106387444
0.1775473 -0.16755536 0.106405735 0.20202067 -0.03950446 0.045670282 -0.026772927 -0.15601967
0.104543164 -0.21686557 0.13691878 0.14630154 0.20955852 -0.040965524 -0.16172315 0.035476662
00000000: c076 9dbd 5cf2 b43d 329f 39be 40bc e4bd
00000010: 1fc2 8ebd ab44 c2bd 6541 d13c 945c 42be
00000020: bea7 3f3e b0a3 50be f229 153e 1c74 583d
00000030: 259d 41bd 4dfe 0a3e 05b0 f7bc 31c7 1a3e
00000040: 278b 8d3c 2de9 82bd 25ba 223e defb 6dbc
00000050: 7710 993d 50ce 8d3e 212a e73d c63c 8dbd
00000060: b1d6 e53d 6e73 9e3d 07cd 353d ba22 0fbe
00000070: cda5 0ebe 19ac dcbd a98c 3bbe 747f d93d
00000080: 3d40 503c 58d5 e73d 70ce c33d a7f8 00bd
00000090: e9ab c03d 35a1 83bd 000b c33d 32ea 3cbe
000000a0: 6ced a23d 31e9 a9bd 2a49 083c c66b 47bc
000000b0: aa46 253e 3424 4cbd 65cb 9abd 3105 dfbd
000000c0: 2158 aa3d 6d23 bdbc 760c 523e 974a d9bd
000000d0: b4a7 13be cec8 a7bd 523a 08be a364 4f3d
000000e0: 999e e53d e258 e93d 9f7b 1dbe dd9c a4bd
000000f0: b7a9 083e 2e34 4cbd 3caa 2c3e 98f4 d6bb
00000100: 76b8 073e 030e a6be 952d 06be 75c3 e33c
00000110: 6694 443d be46 c7bc d182 283e 9c40 1a3e
00000120: 3e2c 02be af51 7ebd 110e 453e 50fc dabd
00000130: 99d4 f9bd 4a55 79be 1c16 79be a76b b63d
00000140: 07b5 89bd f03d a6bd 3544 e63c 11a6 07be
00000150: 917a 03be d970 18be fc5c 12be 909c 07be
00000160: bb08 4f3e 07e2 9b3d 53d6 8a3d b028 56be
00000170: e771 09be 165e 0bbe c661 563d cd8d 6bbe
00000180: 5221 bfbd 70d7 9dbd 2143 b9bd 163d acbd
00000190: c48c 9dba 3cfb 25be 888a 3cbe 0e63 1fbd
000001a0: 129b 69bd 9743 cbbd 08bb 4e3e 34c3 6abd
000001b0: a87e 1b3e 2124 fc3c 907a 2dbe f1c0 c1ba
000001c0: e6c4 403a 9774 5bbd 8be9 60be d504 0ebe
000001d0: 7670 953d f651 343d 3e57 0e3e 12a6 d7bd
000001e0: cbb7 1d3e 2a75 d3bd 9f57 0bbe d6c8 273e
000001f0: 7c7c 5d3d 8079 c23d 772d f33d e259 06be
00000200: 6d1d d3bd c1f1 febd a119 10bd ff0f 1dbe
00000210: 06f3 553e ab6a 11be 17a4 d83d 456f c63d
00000220: 87cc 863d 43ef d4bd 702f 3d3e c0ee c73a
00000230: 7d7d d13c 37c8 2dbe c751 873d 054c acbc
00000240: 1113 f9bd d811 163e d9aa 913c 761e 95bd
00000250: d188 8fbd 1c00 f1bc 70dd 5f3e 5cc3 31bd
00000260: 152e 06be 4889 9abd fe28 8fbd 18ff f03c
00000270: 8782 c23c 8c48 62be af67 793d 5a02 843d
00000280: 6007 6e3d c21c f9bc 74c1 84bb d8c2 c03d
00000290: 81d1 863b 2842 4cbd 15ab 44bd 80ff 1c3c
000002a0: 4990 83bd 9cbf 85bc b41c 4f3e b1ca 613d
000002b0: 09de 06be 08f1 bdbb 6fda a33d bcef eabd
000002c0: fcdc 593d e05d 423d 7695 4cbe e1ea ddbd
000002d0: 33c3 243e b67e 1b3d dac4 b2bc c06a 0ebe
000002e0: 7d82 ebbd 4475 01be 2ed9 98bd 69e4 3d3d
000002f0: 4f38 aa3d 6bb4 593d 74a6 1bbe 339e bfbd
00000300: cfda 57bc 4ded 353e 25f4 d93d 4251 35bd
00000310: ba77 ae3d 147b d1bd 9a59 0ebe f2d0 b63d
00000320: 8e12 2abe 2caf 49be 9e19 81be 4a79 023e
00000330: aeba 243e 1922 a3bc e55f 15be 0268 7fbe
00000340: f5a9 2bbe 22d4 f83d 91d1 6ebd df79 b53d
00000350: f164 0c3e 327d 503d 467c 61bd 6396 0bbe
00000360: a712 85be ad2b 92be ed19 803d ce93 dcbd
00000370: fd95 3cbd 5ee4 56bd 379c 67bd 8ab8 f8bd
00000380: 9c33 06be 1cb4 ba3c 4ea1 06bc c2b7 8c3d
00000390: a063 6abd c9cd 00be 06ac dbbb 6caa bdbd
000003a0: 2625 8f3b 37b6 2fbe 7f92 f93c d632 c4bd
000003b0: a112 083e 2d64 a33d d079 5a3e a9e1 d9bd
000003c0: f6ce 353e a293 2bbe 40eb d93d 82de 4e3e
000003d0: 6ecf 21bd c310 3b3d e652 dbbc 9fc3 1fbe
000003e0: ba1a d63d 0212 5ebe 7034 0c3e 12d0 153e
000003f0: 8296 563e 77cb 27bd c19a 25be fa4f 113d

a2c_network.actor_mlp.0.bias f4 [256]
0.08426286 0.050012413 0.043277737 0.10428424 0.017181905 -0.04944215 0.09026349 0.02013098
0.03581414 -0.07119948 0.035573944 0.072850116 -0.029086526 -0.046348467 0.011396525 0.011706872
0.08898371 -0.028315764 -0.0681173 0.08893329 0.10583872 -0.038740322 -0.022561 0.023612123
0.029998893 -0.083245456 -0.061198756 0.015538905 0.06326737 -0.03509613 0.10277234 -0.093260065
0.11570448 0.071208954 0.10817368 0.06742527 0.12990113 0.011889928 0.1054579 0.0021845961
-0.07256538 0.069695465 -0.09485485 0.21652478 0.08802851 0.090604536 0.09357971 -0.056253694
-0.06765998 0.04486547 0.051624816 0.029195527 -0.026359374 -0.042940885 0.08615524 0.07030524
0.08860361 0.0071202526 0.06405404 -0.0713396 -0.048952173 0.07418214 0.10537142 0.0634379
0.003065776 0.07976317 -0.022787984 -0.024215547 -0.025139406 0.103053994 0.019812724 -0.052773714
0.026770124 0.10755652 0.13659152 0.073489755 -0.051144656 -0.058788627 -0.014395519 0.095965184
0.113663375 -0.05663914 -0.050458483 0.08845712 0.0059876363 -0.06361691 0.15983154 -0.022133749
0.12594643 -0.013309838 0.110104375 -0.1289753 0.07243826 0.07250857 -0.08925913 0.060516838
0.036088705 0.10041873 0.0006000723 0.12043179 0.033688 0.10349118 0.040520653 0.030761667
0.004486766 0.09574244 -0.071906 0.19754978 0.13044533 0.09464014 0.075079285 0.081795886
0.06021912 0.031241618 0.07823623 0.016044416 0.08609768 -0.05867253 0.09371913 0.1573974
0.07077742 -0.04920909 0.09081777 0.03766783 0.06499102 0.0039449474 0.10613273 0.061280463
0.08562356 -0.050819233 0.037487403 0.05959128 -0.014402123 -0.010531633 -0.047170587 0.14060958
0.05870666 -0.08689213 0.030462844 0.12364776 0.028523847 0.023563482 0.05305943 0.089938514
-0.047114603 0.0885896 0.09705185 -0.119071625 0.06316077 0.007276486 -0.054720823 0.10398519
0.088633254 0.043382827 0.106447384 0.035649896 -0.08483418 0.022694847 0.06680118 0.09540191
0.044620495 0.011475395 0.0819371 0.1252553 0.036824286 -0.08187485 0.037820913 0.08328709
0.07133497 0.07886623 -0.062253427 -0.039896075 0.055448364 0.07996549 0.04925682 -0.059942212
-0.11422084 -0.016255759 0.080646984 0.048660234 0.073872834 -0.02088995 -0.09745784 0.07975096
0.087594844 -0.04481295 -0.17576817 0.029579131 0.07309512 -0.016813075 0.13912454 -0.04799605
0.06634479 -0.14563297 -0.13220699 0.04351512 0.07896909 0.13160722 0.049536176 0.00091575464
-0.00794811 0.0773858 0.13763958 0.08725006 0.07112123 0.09374567 0.1083588 0.06824182
-0.043978106 -0.09080783 0.08333388 0.016128503 0.046699878 0.09603545 -0.008407301 0.11540887
-0.0066731786 0.034975357 0.059098255 0.10636197 0.06432859 0.039335627 0.06739517 0.09908204
0.07497969 0.08120362 -0.14953266 -0.013008457 0.061774477 0.02458688 0.057634372 0.03344449
-0.012271029 0.10059843 0.043870024 0.014362895 0.082371086 0.025432177 0.11060464 -0.051946573
0.042440485 0.011744559 0.07178026 0.06446904 -0.0013216599 0.067824006 0.06317587 -0.06568922
0.050579935 0.10053655 -0.16908494 -0.05275272 0.056332476 -0.0006952012 0.026369503 -0.040972922
00000000: 0292 ac3d d1d9 4c3d ff43 313d fa92 d53d
00000010: 11c1 8c3c da83 4abd 11dc b83d bae9 a43c
00000020: d9b1 123d 08d1 91bd fcb5 113d 7132 953d
00000030: de46 eebc e4d7 3dbd 7eb8 3a3c 2ece 3f3c
00000040: 173d b63d 76f6 e7bc 1581 8bbd a822 b63d
00000050: f9c1 d83d 2cae 1ebd d9d1 b8bc 366e c13c
00000060: 3dc0 f53c 987c aabd 8cab 7abd e496 7e3c
00000070: 5392 813d f6c0 0fbd 4e7a d23d 22ff bebd
00000080: 78f6 ec3d 00d6 913d 2a8a dd3d 4316 8a3d
00000090: cd04 053e f9cd 423c 50fa d73d 712b 0f3b
000000a0: 289d 94bd 7fbc 8e3d 4243 c2bd acb8 5d3e
000000b0: 4b48 b43d df8e b93d b8a6 bf3d 466a 66bd
000000c0: 5191 8abd dbc4 373d 8b74 533d 752b ef3c
000000d0: 9def d7bc c8e2 2fbd 2972 b03d 32fc 8f3d
000000e0: cf75 b53d 0251 e93b c42e 833d 7f1a 92bd
000000f0: 1382 48bd ceec 973d f9cc d73d bbeb 813d
00000100: 30eb 483b df5a a33d dead babc af5f c6bc
00000110: 28f1 cdbc f90d d33d 4b4e a23c 4029 58bd
00000120: 054d db3c 9846 dc3d a6de 0b3e cc81 963d
00000130: 0f7d 51bd 58cc 70bd 2fdb 6bbc 6589 c43d
00000140: 58c8 e83d 71fe 67bd 8ead 4ebd 0229 b53d
00000150: ef33 c43b 9549 82bd e1aa 233e d651 b5bc
00000160: 1af8 003e 8211 5abc 677e e13d 1a12 04be
00000170: 835a 943d 607f 943d 7ecd b6bd 81e0 773d
00000180: c0d1 133d 56a8 cd3d 2c4e 1d3a f1a4 f63d
00000190: 6efc 093d 2ff3 d33d fcf8 253d e4ff fb3c
000001a0: b905 933b 9d14 c43d 7443 93bd 7d4a 4a3e
000001b0: 7693 053e b1d2 c13d 2bc3 993d 9a84 a73d
000001c0: 53a8 763d 6cee ff3c 513a a03d 946f 833c
000001d0: fb53 b03d 9b52 70bd d1ef bf3d c92c 213e
000001e0: c1f3 903d 798f 49bd abfe b93d 9549 1a3d
000001f0: 031a 853d 9e44 813b 1e5c d93d 3901 7b3d
00000200: 685b af3d d427 50bd 648c 193d fc15 743d
00000210: e2f6 6bbc df8c 2cbc f235 41bd f5fb 0f3e
00000220: 6576 703d 80f4 b1bd 378d f93c 093b fd3d
00000230: d8aa e93c 3408 c13c d854 593d af31 b83d
00000240: 3efb 40bd 776e b53d 1fc3 c63d d3db f3bd
00000250: 6f5a 813d 976f ee3b f122 60bd 30f6 d43d
00000260: 5a85 b53d 31b2 313d 1601 da3d a005 123d
00000270: 8bbd adbd 8bea b93c 0fcf 883d 1462 c33d
00000280: fbc3 363d 4c03 3c3c a3ce a73d ed42 003e
00000290: 10d5 163d 00ae a7bd 1aea 1a3d 6c92 aa3d
000002a0: 1218 923d 9e84 a13d 73fd 7ebd 116a 23bd
000002b0: d31d 633d f2c4 a33d 85c1 493d f785 75bd
000002c0: 9eec e9bd cc2a 85bc 3f2a a53d f44f 473d
000002d0: a44a 973d 6721 abbc fa97 c7bd 7954 a33d
000002e0: ed64 b33d c98d 37bd 92fc 33be ef4f f23c
000002f0: e5b2 953d 93bb 89bc aa76 0e3e 8297 44bd
00000300: c7df 873d cf20 15be 4561 07be e93c 323d
00000310: 8cba a13d 0bc4 063e 72e6 4a3d 410f 703a
00000320: ca38 02bc 727c 9e3d 64f1 0c3e 29b0 b23d
00000330: 02a8 913d bbfd bf3d 38eb dd3d 5ec2 8b3d
00000340: 6322 34bd 75f9 b9bd f4aa aa3d ec1f 843c
00000350: 5f48 3f3d 3cae c43d c7be 09bc 7c5b ec3d
00000360: aeaa dabb 5242 0f3d 0311 723d 4ed4 d93d
00000370: b5be 833d 651e 213d 7b06 8a3d 86eb ca3d
00000380: f48e 993d 154e a63d 171f 19be 6c21 55bc
00000390: 3c07 7d3d 6d6a c93c 0512 6c3d 17fd 083d
000003a0: 6d0c 49bc 8d06 ce3d 0eb1 333d 5952 6b3c
000003b0: 2cb2 a83d 2457 d03c af84 e23d eec5 54bd
000003c0: 13d6 2d3d 406c 403c 8701 933d 5808 843d
000003d0: 8c3b adba 50e7 8a3d 5a62 813d 1288 86bd
000003e0: e82c 4f3d 1be6 cd3d 9a24 2dbe 3c13 58bd
000003f0: e2bc 663d 2a3e 36ba db04 d83c 39d3 27bd

a2c_network.actor_mlp.2.weight f4 [128, 256]
0.009500916 -0.062522374 0.008068906 0.03950643 -0.023126261 -0.051197287 -0.06351594 0.09638419
0.063645326 0.07399095 0.004683335 -0.05811217 0.016248861 0.019284183 0.022448873 0.019488038
-0.0077120885 -0.00158239 0.014869377 -0.02343726 -0.01903139 0.0340742 -0.05832812 0.0501958
0.06019496 0.022836521 -0.011846709 0.015308645 -0.050661642 0.09431639 -0.016762659 -0.060236562
0.024425596 0.0056593143 -0.050094478 -0.014254849 -0.07778216 -0.056850955 -0.010712593 -0.03865086
-0.071795344 -0.0920808 0.039379 -0.003286362 0.113047756 -0.07926171 -0.018946603 0.08673827
-0.049677342 0.03972715 -0.018654732 0.06841797 -0.06314954 -0.090812095 -0.08178997 -0.014157191
-0.048573125 -0.0038841893 0.014011597 0.019290224 -0.018867826 -0.04941806 -0.022591667 0.0568677
-0.05739066 -0.08262285 0.102187835 0.0106146755 0.027221685 0.0029243336 0.01032423 -0.0669783
0.023519013 0.048231546 0.032211363 0.042212468 0.02291932 -0.08075333 -0.014423222 -0.073949896
0.040915478 -0.005912458 -0.060529027 -0.03058104 -0.033044305 0.11496353 -0.021209165 -0.08294284
-0.15973873 -0.02259182 -0.023278581 -0.026095945 0.046040323 -0.054234363 -0.071028896 -0.0565912
0.063329384 -0.002610265 -0.05331985 -0.031240901 -0.017874759 -0.0005452914 0.06874297 -0.0023600871
-0.049496077 0.020370817 0.059178896 0.00014464879 -0.03807019 0.023008998 -0.05781264 -0.01951446
0.03668121 -0.14314069 0.028279122 -0.083024554 -0.04149964 0.0003965979 -0.10640509 -0.04441686
-0.072272494 -0.0719501 0.013767593 -0.024121499 -0.0002653787 -0.028029121 -0.0353554 -0.0090318
0.030776102 0.04975368 -0.08947603 -0.012215364 0.004666451 -0.002148851 -0.01675206 -0.06317548
-0.096656755 -0.017979832 -0.016768524 -0.024779042 0.010159673 -0.015967019 0.002724229 -0.05236159
-0.017701726 0.025993884 -0.017181193 0.03192207 0.06112481 0.005194322 0.12162173 0.06275566
-0.0815002 0.015171653 -0.03118524 0.11939899 0.024472348 0.05551512 -0.014213966 -0.039311744
-0.01164078 -0.021375993 -0.033248067 -0.0770733 0.039774578 0.08715694 -0.058709297 -0.04559563
0.083739996 -0.031981356 0.13010512 -0.052762244 -0.0034513976 -0.03460136 -0.011006944 0.05972683
-0.07069535 -0.06350531 0.0060657123 -0.057787154 -0.07465908 -0.068543315 -0.097307004 -0.07732285
-0.008067114 -0.07268419 0.05135835 0.11950241 0.0055952836 -0.025755888 0.0044788644 0.01026993
0.034941915 -0.047941923 0.05253397 -0.056457587 0.005492619 0.06760977 -0.06359347 0.017910505
0.07814211 -0.0018522304 0.05943272 -0.020999989 -0.13039559 -0.05990952 -0.039235067 0.035514764
-0.015449038 0.0027853781 -0.08631121 -0.038380522 -0.10958517 -0.000105050196 -0.03970657 -0.043192055
0.00083282107 -0.017886205 -0.07887458 0.039250772 -0.019454565 -0.08032331 -0.009192925 -0.118247986
-0.09280508 -0.087553464 -0.03915911 -0.055723157 -0.13197069 -0.032340918 0.06296291 -0.050040558
-0.06318053 -0.013765976 -0.0359858 0.037858102 -0.015321655 0.001652149 -0.06881216 -0.0094091175
0.009434282 0.006854716 -0.102241136 0.07829867 0.036508314 0.06137173 -0.034202658 0.023971567
0.046223268 0.04005581 -0.041064337 -0.069145426 -0.05226939 0.005434596 0.029108532 -0.07242378
00000000: bba9 1b3c bb0b 80bd 7233 043c 7fd1 213d
00000010: 4973 bdbc 3fb4 51bd a514 82bd 1365 c53d
00000020: 7b58 823d 9188 973d a976 993b 0707 6ebd
00000030: 551c 853c ddf9 9d3c b3e6 b73c 61a5 9f3c
00000040: b0b5 fcbb 3368 cfba b09e 733c 7fff bfbc
00000050: b8e7 9bbc 6391 0b3d 77e9 6ebd 1c9a 4d3d
00000060: fe8e 763d a813 bb3c b318 42bc 1cd1 7a3c
00000070: 9582 4fbd f428 c13d d851 89bc 9dba 76bd
00000080: 3018 c83c c571 b93b de2f 4dbd 2c8d 69bc
00000090: 414c 9fbd 8cdc 68bd df83 2fbc 5d50 1ebd
000000a0: 7009 93bd dc94 bcbd e04b 213d 0160 57bb
000000b0: 9585 e73d f753 a2bd e835 9bbc d6a3 b13d
000000c0: 787a 4bbd f0b8 223d cfd1 98bc b81e 8c3d
000000d0: 8c54 81bd b1fb b9bd 8081 a7bd 90f3 67bc
000000e0: 9df4 46bd e28d 7ebb e690 653c 8806 9e3c
000000f0: b390 9abc 976a 4abd 2912 b9bc 1bee 683d
00000100: 7812 6bbd 2b36 a9bd db47 d13d 2de9 2d3c
00000110: 0300 df3c 2da6 3f3b f626 293c eb2b 89bd
00000120: f2aa c03c 718e 453d 10f0 033d fbe6 2c3d
00000130: 4cc1 bb3c 0062 a5bd 614f 6cbc 0b73 97bd
00000140: fd96 273d 4bbd c1bb 49ed 77bd 1785 fabc
00000150: 7759 07bd 0072 eb3d d8be adbc f0dd a9bd
00000160: 8d92 23be 7b12 b9bc b9b2 bebc 2ac7 d5bc
00000170: c794 3c3d da24 5ebd 9977 91bd 2dcc 67bd
00000180: d6b2 813d fb10 2bbb ea65 5abd ebec ffbc
00000190: 166e 92bc e3f1 0eba 1dc9 8c3d b1ab 1abb
000001a0: 66bc 4abd b3e0 a63c 9265 723d ddac 1739
000001b0: 7def 1bbd 5e7d bc3c f2cc 6cbd cadc 9fbc
000001c0: 093f 163d 7993 12be 9ea9 e73c c708 aabd
000001d0: 87fb 29bd 78ee cf39 e9ea d9bd 74ee 35bd
000001e0: 9a03 94bd 935a 93bd 7891 613c 739a c5bc
000001f0: 8722 8bb9 549d e5bc d3d0 10bd 1dfa 13bc
00000200: 2a1e fc3c 84ca 4b3d 353f b7bd f322 48bc
00000210: 07e9 983b bdd3 0cbb 9e3b 89bc 2562 81bd
00000220: faf3 c5bd 714a 93bc 255e 89bc 6bfd cabc
00000230: c274 263c 44cd 82bc fa88 323b 1b79 56bd
00000240: 3603 91bc 20f1 d43c 93bf 8cbc b7c0 023d
00000250: 025e 7a3d 2235 aa3b d014 f93d 0a86 803d
00000260: 94e9 a6bd 8692 783c 3078 ffbc 7587 f43d
00000270: 3c7a c83c d363 633d b2e1 68bc 5a05 21bd
00000280: f8b8 3ebc b51c afbc 202f 08bd 9bd8 9dbd
00000290: abea 223d 567f b23d 2979 70bd 7cc2 3abd
000002a0: e07f ab3d e2fe 02bd 473a 053e 391d 58bd
000002b0: d830 62bb 28ba 0dbd 7856 34bc 1fa4 743d
000002c0: b9c8 90bd 120f 82bd e2c2 c63b 39b2 6cbd
000002d0: dce6 98bd 7060 8cbd e548 c7bd 715b 9ebd
000002e0: ee2b 04bc 73db 94bd 225d 523d aebd f43d
000002f0: a458 b73b 03fe d2bc 70c3 923b 3543 283c
00000300: 411f 0f3d c05e 44bd dc2d 573d 1240 67bd
00000310: 6dfb b33b fe76 8a3d 4b3d 82bd 0db9 923c
00000320: f808 a03d 8ac6 f2ba b96f 733d 2b08 acbc
00000330: 6c86 05be af63 75bd f3b4 20bd ee77 113d
00000340: f61d 7dbc e48a 363b efc3 b0bd e534 1dbd
00000350: 316e e0bd 654e dcb8 5ba3 22bd 27ea 30bd
00000360: ad51 5a3a 1786 92bc ff88 a1bd 6bc5 203d
00000370: 2e5f 9fbc 8c80 a4bd ec9d 16bc 002c f2bd
00000380: 9710 bebd 3b4f b3bd 4e65 20bd f73d 64bd
00000390: 5323 07be e977 04bd b3f2 803d 54f7 4cbd
000003a0: cb64 81bd b08a 61bc d965 13bd 1911 1b3d
000003b0: ae07 7bbc ec8c d83a 64ed 8cbd b328 1abc
000003c0: 3f92 1a3c 879d e03b cd63 d1bd 0e5b a03d
000003d0: be89 153d ec60 7b3d 1618 0cbd 0560 c43c
000003e0: 9c54 3d3d 9011 243d 1433 28bd 1e9c 8dbd
000003f0: 6e18 56bd b214 b23b 0475 ee3c eb52 94bd

a2c_network.actor_mlp.2.bias f4 [128]
-0.023326742 0.06419515 -0.042172693 -0.035677083 -0.003436949 -0.026935946 0.024714222 -0.05067194
0.058664076 0.035216372 0.07480936 0.08502615 0.037885725 -0.1398429 0.008710439 -0.106540546
0.03774931 0.0146093825 -0.013467253 -0.10361334 -0.09856398 0.059056815 0.06524505 -0.12325311
-0.129604 0.017219065 0.043788005 -0.1210895 -0.058202546 0.05191955 -0.047847968 0.037180267
-0.044640686 0.054434136 0.022329427 0.06852291 0.0443857 -0.08644222 -0.12742983 -0.068890326
0.045564566 0.045813896 -0.09352353 -0.06349949 0.045378838 0.029666116 -0.085007645 0.05264219
-0.09268771 0.044718735 -0.06170817 -0.11690307 0.0015892675 0.004755784 -0.052510012 0.061726462
0.042336393 0.052306578 0.04131901 -0.12892802 0.052024752 -0.045673534 -0.033983227 -0.035873443
-0.02666089 -0.09550026 -0.04034253 -0.007859462 0.06298234 0.013591196 0.03590165 -0.091649145
0.03128913 -0.043111067 0.030931178 -0.08724646 0.06759008 0.042500973 0.039103776 -0.007367031
-0.008961041 -0.07998786 -0.049433574 -0.022207607 -0.19639432 -0.06446879 0.059820954 -0.14347951
-0.019034147 0.045964446 -0.11661298 -0.14024818 -0.102039516 0.0039735287 -0.18868928 0.043131147
-0.0016888673 -0.045361083 0.026148293 -0.03876102 -0.052599806 0.058896203 0.021345563 0.014845691
0.054705005 0.05320771 -0.13377514 -0.03548054 -0.13708964 0.032560788 -0.10447709 -0.20665444
-0.08208107 0.05436101 -0.05100682 -0.08344181 0.0443904 0.040005174 -0.11223165 -0.14557362
-0.09645901 0.055364516 -0.17943932 -0.020779474 -0.049720023 -0.048660614 0.002321086 0.037089374
00000000: b917 bfbc bf78 833d 46bd 2cbd 2222 12bd
00000010: 703e 61bb c6a8 dcbc 7b75 ca3c 618d 4fbd
00000020: be49 703d 0b3f 103d a635 993d 3122 ae3d
00000030: 102e 1b3d fa32 0fbe 3bb6 0e3c ee31 dabd
00000040: 059f 1a3d 315c 6f3c c1a5 5cbc 3b33 d4bd
00000050: e9db c9bd 8fe5 713d 329f 853d 206c fcbd
00000060: e9b6 04be ff0e 8d3c 0d5b 333d c6fd f7bd
00000070: cb65 6ebd 98a9 543d 3bfc 43bd 564a 183d
00000080: 27d9 36bd 54f6 5e3d 34ec b63c bd55 8c3d
00000090: c8cd 353d 9e08 b1bd f77c 02be 5f16 8dbd
000000a0: e9a1 3a3d 5aa7 3b3d 4489 bfbd 050c 82bd
000000b0: 29df 393d 5b06 f33c 7d18 aebd 569f 573d
000000c0: 0ed3 bdbd fe2a 373d b5c1 7cbd e06a efbd
000000d0: f84e d03a 68d6 9b3b bd14 57bd e3d4 7c3d
000000e0: ed68 2d3d 6c3f 563d 1f3e 293d b505 04be
000000f0: e817 553d 2c14 3bbd ff31 0bbd 08f0 12bd
00000100: f067 dabc a495 c3bd 353e 25bd f9c4 00bc
00000110: e3fc 803d 9cad 5e3c 9c0d 133d 8cb2 bbbd
00000120: 0829 003d 3b95 30bd 6263 fd3c 46ae b2bd
00000130: ab6c 8a3d 8015 2e3d 482b 203d 2367 f1bb
00000140: 55d1 12bc add0 a3bd dc7a 4abd baec b5bc
00000150: 981b 49be 3708 84bd d106 753d 4bec 12be
00000160: 80ed 9bbc 3745 3c3d c9d2 eebd 389d 0fbe
00000170: 18fa d0bd 6034 823b c337 41be 49aa 303d
00000180: fc5c ddba 8bcc 39bd f234 d63c e0c3 1ebd
00000190: e572 57bd 253d 713d e4dc ae3c 573b 733c
000001a0: 5b12 603d 54f0 593d 5afc 08be 0b54 11bd
000001b0: 3a61 0cbe 765e 053d 16f8 d5bd 399d 53be
000001c0: 1f1a a8bd a7a9 5e3d 87ec 50bd 8ae3 aabd
000001d0: b5d2 353d 77dc 233d b5d9 e5bd 4011 15be
000001e0: 4d8c c5bd e7c5 623d f1be 37be b739 aabc
000001f0: 39a7 4bbd 5a50 47bd 5c1d 183b 07eb 173d

a2c_network.value.weight f4 [1, 128]
-0.0059261285 0.022859786 -0.008064739 -0.0017946891 -0.00034417163 -0.002411486 0.0009163362 0.004420972
0.010320934 0.0033954738 0.053059697 0.043758675 0.004264451 -0.056759447 -0.003087086 -0.032069195
-0.0011167651 0.0016943108 0.0021206867 -0.03781872 -0.01571509 -0.00046611743 0.016237604 -0.048470482
-0.036768228 -0.00089624693 0.009099521 0.0015981336 -0.0084051 0.01799176 0.001327394 0.002780517
0.009554616 0.0035704118 0.0035857318 -0.020932406 0.0019389865 -0.010052863 -0.01907654 -0.009655386
0.00684311 0.013252861 -0.014487314 -0.008861256 0.0126099065 0.0036643252 -0.00061744684 0.00937694
0.0076736105 0.0039382065 -0.006627791 -0.02985412 -0.0064097983 0.0021602332 -0.006566075 0.0076845977
0.030742673 0.006256051 0.006476854 -0.03672605 0.008036824 -0.0074561355 0.019992398 -0.0014361845
0.006011261 -0.01587749 -0.0005419893 -0.0031633493 -0.0011479104 0.00014182684 -0.005009172 -0.0018402488
0.0032271773 -0.009012435 -0.0034892724 -0.024695247 0.007903367 0.0057049063 -0.0047051003 -0.010276972
-0.0021850762 -0.008751778 0.020004723 0.0041134823 -0.08348994 -0.0012316811 0.013999021 -0.017995019
-0.0040791016 0.004297965 -0.028181296 -0.044015314 -0.033121657 -0.0037765496 -0.08216274 0.007849076
-0.001159645 0.0022924724 0.004066497 -0.007784436 -0.0024524163 0.010249104 -0.0003281108 -0.00072845037
0.0064235716 0.005782287 -0.042990226 0.0024780612 -0.057357892 0.030578611 -0.008405992 -0.078752525
-0.0033186837 0.009073917 -0.00062573625 -0.024392959 0.0014105216 -0.0031044816 -0.015306895 -0.093492426
-0.009584942 0.012961982 -0.09634412 0.0011461364 0.0026258358 -0.007421502 -0.004170402 0.009015076
00000000: f82f c2bb 7244 bb3c f821 04bc c63b ebba
00000010: ef71 b4b9 060a 1ebb 4836 703a cddd 903b
00000020: 2219 293c 9986 5e3b 2055 593d 4c3c 333d
00000030: cfbc 8b3b 987c 68bd b550 4abb fd5a 03bd
00000040: 6b60 92ba a313 de3a 38fb 0a3b cde7 1abd
00000050: efbc 80bc 3961 f4b9 b904 853c fc88 46bd
00000060: 489a 16bd 1df2 6aba 2816 153c 7778 d13a
00000070: 8bb5 09bc 7563 933c f4fb ad3a 5639 363b
00000080: f78a 1c3c 92fd 693b 99fe 6a3b 707a abbc
00000090: 9725 fe3a c3b4 24bc 6746 9cbc a031 1ebc
000000a0: 2b3c e03b 8722 593c 335c 6dbc cd2e 11bc
000000b0: c899 4e3c 2d25 703b 28dc 21ba bda1 193c
000000c0: e972 fb3b 120c 813b f12d d9bb a190 f4bc
000000d0: 4909 d2bb b392 0d3b 3b28 d7bb 14cf fb3b
000000e0: 0fd8 fb3c 8fff cc3b ca3b d43b 0e6e 16bd
000000f0: e2ac 033c 9952 f4bb 19c7 a33c 5b3e bcba
00000100: 1dfa c43b 8311 82bc 4914 0eba 3250 4fbb
00000110: 7b75 96ba 5ab7 1439 fb23 a4bb 8134 f1ba
00000120: 0d7f 533b e4a8 13bc 47ac 64bb b04d cabc
00000130: 207d 013c 39f0 ba3b 3e2d 9abb bf60 28bc
00000140: 7f33 0fbb 9e63 0fbc f2e0 a33c 64ca 863b
00000150: c6fc aabd 5c70 a1ba 265c 653c 4a6a 93bc
00000160: fca9 85bb f2d5 8c3b 76dc e6bc 6749 34bd
00000170: 93aa 07bd fd7f 77bb f044 a8bd 6999 003c
00000180: 3bff 97ba 4e3d 163b 4040 853b 9514 ffbb
00000190: b8b8 20bb dceb 273c 4906 acb9 7af5 3eba
000001a0: d37c d23b 5779 bd3b 8516 30bd f866 223b
000001b0: 1cf0 6abd ff7f fa3c 49b9 09bc 0149 a1bd
000001c0: 467e 59bb c4aa 143c 7308 24ba bed3 c7bc
000001d0: 40e1 b83a 8f74 4bbb c5c9 7abc f578 bfbd
000001e0: 290a 1dbc 7e5e 543c 1150 c5bd f539 963a
000001f0: 3716 2c3b 1230 f3bb dea7 88bb f8b3 133c

a2c_network.mu.weight f4 [6, 128]
-0.0028963648 0.042304 -0.0073042247 0.010735024 -0.018078923 -0.0048394836 0.00939025 -0.012428467
-0.028276082 -0.0052171964 -0.022026692 -0.06319137 -0.017653428 0.049269494 0.013077086 -0.012633453
-0.0068970667 0.011664836 -0.016894098 0.04465262 0.09136261 0.019664127 -0.041582767 0.10878561
0.004455772 0.009738678 -0.018825691 0.001601298 0.000672883 -0.009381364 -0.007848439 -0.01693852
-0.034899794 -0.015387536 0.017023778 -0.006349463 -0.011811718 0.044329982 0.04936973 0.032711748
-0.009713561 0.0078143785 0.02790569 0.0019675612 0.022411117 0.015926681 0.07817474 -0.0117200455
0.0018556471 0.016278481 0.0063444464 0.06758649 -0.0043272404 0.0053148908 0.018639553 -0.054880545
0.012987445 -0.058068104 -0.015982063 -0.034703817 0.0009910606 -0.0134710735 0.02707703 -0.0013306224
-0.02659876 0.028379885 0.013252545 0.0052682543 0.011327313 0.002891638 0.0004092717 0.02004096
-0.015063501 0.018537506 -0.009797163 -0.06651062 -0.013643752 -0.017301546 -0.0062135323 -0.014494132
-0.029650636 -0.00213928 0.016886797 -0.0088592395 0.07324628 -0.01153376 -0.00042495082 0.035892062
0.011909062 -0.03916695 -0.033156257 0.04505625 0.021779817 0.0078344615 0.023455981 0.017675113
0.017485997 -0.010342903 -0.0016887751 -0.0020732435 -0.008496997 -0.015397068 0.0035811958 0.0071530435
0.03329274 0.004574543 -0.02287722 -0.015365346 -0.0075674597 -0.037654705 -0.011251856 -0.03740265
-0.0038540896 -0.010751735 0.001525484 -0.056074634 0.003833569 0.018629672 0.07045337 0.056152783
0.014963867 0.023133196 0.012620408 0.002090055 -0.0095883235 -0.040521335 -0.009044125 0.022491062
0.0043950924 -0.07585977 0.010857973 -0.0054747784 -0.0044975337 0.001407734 -0.0011756379 -0.015811289
0.0045266673 -0.0044137496 0.0022187408 -0.043449495 -0.010865279 -0.017193511 0.027943362 -0.061045203
-0.015709834 -0.010536177 -0.00028204342 -0.008932748 0.018588627 -0.008985578 -0.064094916 -0.017281493
0.014397128 0.016055731 -0.027975503 -0.031283367 -0.014502389 -0.026323054 -0.020653501 -0.0036323178
-0.021218663 0.011087608 0.0072595235 -0.04678073 -0.004437684 0.009976129 0.122787744 0.03638012
0.0033826237 -0.03983685 -0.017291002 0.02551501 -0.015397516 0.0038955293 -0.05353664 -0.0039627096
-0.027011814 0.0092204865 0.0020592276 0.05784467 0.0049293507 0.004346903 0.024594646 -0.0069866274
-0.07374266 0.004829072 -0.022023182 0.0055142404 -0.030498412 -0.011185746 -0.033845045 0.0026304796
-0.007957088 -0.005597263 0.027426908 0.0033217578 -0.027892997 0.00546562 0.036191847 -0.0050053024
-0.016505234 -0.002846 0.0014302426 0.02203904 -0.0066186865 0.00013005802 0.023690691 0.0028094233
0.011894202 0.07391315 -0.048569746 -0.01512361 0.09911465 0.010110765 0.0017466412 -0.0060394756
0.022035865 0.039898615 -0.015483319 0.0045853388 0.0512437 -0.009635104 0.106314324 -0.00038380752
0.0026022485 -0.010266529 0.011337595 -0.0017365213 0.026172621 0.006444205 0.009252983 0.004057462
-0.04112467 -0.016674865 -0.00896901 -0.0036101257 -0.07199803 -0.020814938 -0.033607528 0.060632084
0.013246746 -0.020837085 0.002643858 0.07208139 -0.008992147 0.0010340755 0.017419815 0.06951321
-0.033370543 -0.034603294 0.105198406 -0.011255011 -0.010440088 0.021277927 0.00793469 -0.043035585
00000000: f0d0 3dbb f646 2d3d 4758 efbb f4e1 2f3c
00000010: 401a 94bc 8894 9ebb 90d9 193c c5a0 4bbc
00000020: 3ea3 e7bc 04f5 aabb 5271 b4bc 7a6a 81bd
00000030: ec9d 90bc cfce 493d 4641 563c 8bfc 4ebc
00000040: ca00 e2bb de1d 3f3c 7e65 8abc aae5 363d
00000050: 521c bb3d aa16 a13c b152 2abd fdca de3d
00000060: ba01 923b fa8e 1f3c 5638 9abc a5e2 d13a
00000070: 6a64 303a 4bb4 19bc bd96 00bc a7c2 8abc
00000080: 16f3 0ebd 011c 7cbc 7375 8b3c 280f d0bb
00000090: f085 41bc 5b93 353d ea37 4a3d c1fc 053d
000000a0: a125 1fbc e107 003c 799a e43c 33f2 003b
000000b0: 8597 b73c ac78 823c 141a a03d 6f05 40bc
000000c0: 2f39 f33a 735a 853c 13e5 cf3b c96a 8a3d
000000d0: 86cb 8dbb 8928 ae3b fab1 983c 6cca 60bd
000000e0: 4bc9 543c d2d8 6dbd d1ec 82bc 9725 0ebd
000000f0: 7ae6 813a c7b5 5cbc a6d0 dd3c 4768 aeba
00000100: a5e5 d9bc ef7c e83c 3421 593c 52a1 ac3b
00000110: 3296 393c a381 3d3b 8593 d639 f02c a43c
00000120: e7cc 76bc f8db 973c 4884 20bc b836 88bd
00000130: 0b8a 5fbc f9bb 8dbc e39a cbbb cc78 6dbc
00000140: e4e5 f2bc 2a33 0cbb 2e56 8a3c 5826 11bc
00000150: 2502 963d 18f8 3cbc efcb deb9 8e03 133d
00000160: 3a1e 433c 866d 20bd dbce 07bd e78c 383d
00000170: 966b b23c 1d5c 003c c226 c03c 66cb 903c
00000180: cb3e 8f3c 4875 29bc e459 ddba 41df 07bb
00000190: fd36 0bbc fc43 7cbc 7fb2 6a3b 1464 ea3b
000001a0: f85d 083d 0ce6 953b 0269 bbbc efbe 7bbc
000001b0: 74f8 f7bb d23b 1abd b459 38bc 8533 19bd
000001c0: e594 7cbb 0c28 30bc c0f2 c73a 84ae 65bd
000001d0: 9d3c 7b3b 419d 983c db49 903d 7600 663d
000001e0: 022b 753c d481 bd3c d4c5 4e3c 4ef9 083b
000001f0: 5818 1dbc b3f9 25bd cf2d 14bc 2d3f b83c
00000200: b504 903b 5e5c 9bbd a4e5 313c c565 b3bb
00000210: 0c60 93bb b783 b83a dd17 9aba ad86 81bc
00000220: 7054 943b 37a1 90bb 4b68 113b 19f8 31bd
00000230: 4804 32bc 68d9 8cbc 7ae9 e43c 890a 7abd
00000240: e9b1 80bc ee9f 2cbc 3adf 93b9 a95a 12bc
00000250: 2d47 983c 3f38 13bc 3244 83bd eb91 8dbc
00000260: eee1 6b3c 4f87 833c e22c e5bc fd22 00bd
00000270: 6e9b 6dbc 72a3 d7bc 8831 a9bc 2e0c 6ebb
00000280: c3d2 adbc cca8 353c 4ce1 ed3b 279d 3fbd
00000290: fe69 91bb eb72 233c 2478 fb3d 5203 153d
000002a0: 02af 5d3b f72b 23bd dca5 8dbc db04 d13c
000002b0: dd45 7cbc 234c 7f3b 3c49 5bbd 9ed9 81bb
000002c0: e147 ddbc 8611 173c 1bf4 063b 88ee 6c3d
000002d0: 6486 a13b 7770 8e3b b67a c93c 14f0 e4bb
000002e0: 6406 97bd 313d 9e3b f669 b4bc cdb0 b43b
000002f0: ced7 f9bc 6b44 37bc 1aa1 0abd 2064 2c3b
00000300: 725e 02bc 3f69 b7bb 65ae e03c d9b1 593b
00000310: db7f e4bc f218 b33b e73d 143d 8503 a4bb
00000320: fc35 87bc f583 3abb fa76 bb3a 388b b43c
00000330: 91e1 d8bb 2f60 0839 fb12 c23c 4d1e 383b
00000340: e6df 423c c75f 973d 12f1 46bd 05c9 77bc
00000350: 9ffc ca3d 9fa7 253c 8eef e43a cbe6 c5bb
00000360: 8f84 b43c bb6c 233d bfad 7dbc 9c40 963b
00000370: eae4 513d 8edc 1dbc 53bb d93d c639 c9b9
00000380: 7c8a 2a3b f234 28bc 52c1 393c fc9b e3ba
00000390: f767 d63c e929 d33b d399 173c 75f4 843b
000003a0: 5872 28bd ba99 88bc c1f2 12bc dc97 6cbb
000003b0: b473 93bd 1784 aabc 0ca8 09bd 5959 783d
000003c0: e108 593c 89b2 aabc 9444 2d3b 689f 933d
000003d0: cc53 13bc d189 873a 00b4 8e3c f15c 8e3d
000003e0: 8daf 08bd 2fbc 0dbd 4372 d73d f066 38bc
000003f0: e70c 2bbc 0c4f ae3c 8100 023c 1546 30bd

a2c_network.mu.bias f4 [6]
-0.12746748 -0.11997805 0.123653814 -0.11020161 0.037200913 0.016865943
00000000: d686 02be 0db7 f5bd 363e fd3d 62b1 e1bd
00000010: fc5f 183d 722a 8a3c

exp_avg f4 [6]
0.005873284 0.0044740443 0.007914241 -0.0011114031 -0.0012917835 0.0036347688
00000000: ad74 c03b 019b 923b bcaa 013c 80ac 91ba
00000010: 1051 a9ba 4d35 6e3b

exp_avg_sq f4 [6]
4.5298424e-05 3.6693884e-05 4.9827293e-05 3.1119485e-05 3.1310807e-05 2.12794e-05
00000000: d0fe 3d38 c2e7 1938 a6fd 5038 4b86 0238
00000010: b953 0338 2a81 b237

exp_avg f4 [256, 22]
9.4633906e-05 -4.1712494e-05 -0.000103344726 -0.00029555417 0.00014419196 -0.00049715827 0.000107425054 6.0586583e-05
0.00023291181 0.00019863325 7.0132395e-05 -0.00012702846 2.8694505e-05 -1.1647499e-05 0.00022726104 -3.6732328e-07
-0.0004941835 0.00036349153 -0.00020938175 -0.00027748392 -0.0004431217 -2.8734248e-05 4.9299004e-05 9.3842296e-05
-5.7796988e-05 0.00019529974 -4.0261697e-05 0.00027407968 -2.1236716e-05 -6.202592e-05 -6.49761e-05 2.9814975e-05
-4.2161435e-05 -0.00022729274 -2.7537995e-05 -6.621099e-05 -6.11561e-05 1.861446e-05 2.8954513e-05 3.249475e-05
-3.296826e-05 -8.419104e-05 0.00015677871 -0.00018385319 -9.710877e-05 -1.1740769e-05 1.036155e-05 0.00014380176
5.1955958e-05 2.9778279e-05 8.5049505e-06 -4.0137278e-05 -3.7808026e-05 4.2979646e-05 -8.539135e-05 -0.00026223523
-9.5935175e-05 -2.3281713e-05 0.00012950136 0.00018271984 -0.00026914506 0.00021942584 8.310125e-05 -0.000103470506
8.3191415e-05 -0.00024612466 -6.4940556e-05 -0.00017337468 9.0488735e-05 9.374361e-05 0.00012288713 1.4871399e-05
0.00011291284 0.00015488967 1.6502163e-05 -4.2748423e-05 3.8960425e-05 0.00022643912 -0.0001581402 -3.609636e-05
0.00016918709 -0.00014088504 -8.039017e-05 -8.38284e-06 -5.881265e-05 -0.00022405686 -7.129547e-05 4.338176e-05
-5.632214e-05 2.9518482e-05 3.235841e-05 -0.00015320488 0.00019225835 -0.00017498757 9.022336e-06 -1.3396627e-05
4.453425e-06 5.6610028e-05 0.00013718246 -0.00012101801 0.0002302115 -0.00030095436 3.497637e-05 1.583555e-05
-0.00040700086 0.00016033975 -0.00010982205 -4.2623105e-05 -0.000111578694 -5.9533253e-05 -0.00029542667 -0.00024175829
0.00024516563 0.00032438338 0.00013295173 2.8121232e-05 0.00012416634 0.00013502823 -8.531751e-05 -2.144005e-05
-7.0299844e-05 5.0271185e-05 -4.9506772e-05 0.00011694447 8.4676365e-05 0.00012357242 -9.311646e-05 -3.0025762e-05
0.00023974445 -6.841322e-05 5.807786e-05 8.373016e-06 3.7312977e-05 -4.720206e-05 1.5363426e-06 2.4976758e-05
0.00012243679 -0.00013490941 5.143516e-05 0.00010276492 6.22692e-05 -0.00010157993 -0.000119280216 -0.00022150482
4.0855037e-05 -3.2763834e-05 0.00012931197 -9.7504584e-05 -0.00023570303 0.00021059033 -0.00014328107 -0.00032933627
-0.00010746976 -0.00016010922 -0.00012747697 4.5697957e-06 9.509575e-05 8.488922e-06 6.746731e-05 6.6672816e-05
8.3889885e-05 4.7270365e-05 -1.8460056e-05 4.360446e-05 1.9797397e-05 -5.1181047e-05 -0.000111545516 -6.3579846e-06
9.0700385e-05 7.747889e-05 -4.8467315e-05 -5.2929845e-05 0.00011521216 -1.4107635e-06 1.2071375e-05 -3.1969303e-05
-9.18348e-05 2.3737766e-05 6.270777e-05 4.02976e-05 9.976886e-05 -6.947734e-05 2.8136508e-06 2.8282278e-05
7.371663e-05 2.1682998e-05 -8.696224e-05 -8.7197826e-05 -8.0691225e-06 -5.4718526e-05 -3.807827e-05 9.476629e-05
-0.00014453681 7.443945e-05 1.841194e-05 -6.0430608e-05 9.0992384e-05 -0.00017369394 -0.00036533343 -0.0002043004
0.00048658144 0.00016154992 0.00021182385 -7.256251e-05 0.00021584766 -0.00021632072 -0.00010723852 2.3590297e-05
0.0001715042 0.00034703923 0.0002460695 -0.00011801826 3.4189467e-05 0.000115649775 6.705431e-05 -0.00011916681
0.0001686131 4.4628265e-05 0.0002732554 2.3974984e-05 -2.2235032e-05 -5.2391533e-05 2.4372725e-05 -2.8402542e-06
4.458971e-05 -0.00013643349 3.1324278e-05 0.00013510116 6.2688625e-05 2.7010012e-05 -0.00017568153 -0.00013521705
-6.166585e-05 -4.1101972e-05 -2.246467e-05 -2.734806e-05 -0.00024811956 0.00019981843 -0.000173268 -0.00020343057
-7.491155e-05 -9.2662754e-05 3.0429133e-05 1.4735941e-05 1.4057936e-05 3.560701e-05 8.776194e-05 5.273571e-05
6.335303e-05 -3.2438409e-06 -3.5487632e-05 6.021719e-05 6.5388966e-05 -1.46535795e-05 0.00023716492 -0.00013844209
00000000: 3176 c638 73f4 2eb8 c7ba d8b8 9cf4 9ab9
00000010: 3c32 1739 ba53 02ba 6349 e138 591e 7e38
00000020: ca39 7439 3548 5039 0b14 9338 f132 05b9
00000030: fbb4 f037 a169 43b7 ec4c 6e39 8734 c5b4
00000040: 188c 01ba 0293 be39 7c8d 5bb9 437b 91b9
00000050: ca52 e8b9 540a f1b7 67c6 4e38 33cd c438
00000060: 0b6b 72b8 60c9 4c39 abde 28b8 5ab2 8f39
00000070: 8025 b2b7 ea13 82b8 c743 88b8 2c1b fa37
00000080: 7fd6 30b8 6e55 6eb9 6501 e7b7 c1da 8ab8
00000090: ee40 80b8 4026 9c37 58e3 f237 f94a 0838
000000a0: 6647 0ab8 b88f b0b8 f764 2439 b7c8 40b9
000000b0: e0a6 cbb8 38fa 44b7 85d6 2d37 7ec9 1639
000000c0: 49eb 5938 5ecc f937 7cb0 0e37 1359 28b8
000000d0: 0f94 1eb8 0b45 3438 2214 b3b8 9e7c 89b9
000000e0: ce30 c9b8 194d c3b7 c2ca 0739 7c98 3f39
000000f0: 0a1c 8db9 ad15 6639 a546 ae38 4efe d8b8
00000100: 0d77 ae38 4b0a 81b9 b230 88b8 e9cb 35b9
00000110: c5c4 bd38 3898 c438 43db 0039 2c80 7937
00000120: 9fcb ec38 e169 2239 206e 8a37 c54c 33b8
00000130: 7069 2338 4a70 6d39 70d2 25b9 2c66 17b8
00000140: d067 3139 8aba 13b9 2597 a8b8 06a4 0cb7
00000150: 9aad 76b8 cef0 6ab9 7784 95b8 cff4 3538
00000160: 703b 6cb8 759e f737 94b8 0738 9fa5 20b9
00000170: f598 4939 de7c 37b9 a35e 1737 13c2 60b7
00000180: a16e 9536 8e70 6d38 a3d8 0f39 0dcb fdb8
00000190: ee64 7139 69c9 9db9 97b3 1238 96d6 8437
000001a0: bb62 d5b9 e020 2839 4450 e6b8 36c6 32b8
000001b0: 5bff e9b8 58b3 79b8 7fe3 9ab9 7f80 7db9
000001c0: 9389 8039 0012 aa39 f568 0b39 e3e5 eb37
000001d0: a632 0239 5d96 0d39 7dec b2b8 28da b3b7
000001e0: f16d 93b8 46da 5238 7ea5 4fb8 1640 f538
000001f0: 4794 b138 3893 0139 8547 c3b8 d5df fbb7
00000200: e963 7b39 1179 8fb8 a198 7338 d479 0c37
00000210: 8180 1c38 d3fa 45b8 5434 ce35 2e85 d137
00000220: 6062 0039 7876 0db9 15bc 5738 7f83 d738
00000230: 8696 8238 4f07 d5b8 1426 fab8 bf43 68b9
00000240: c35b 2b38 e66b 09b8 eb97 0739 607b ccb8
00000250: 0d27 77b9 e9d1 5c39 b83d 16b9 c4aa acb9
00000260: 6361 e1b8 fee2 27b9 57ab 05b9 3f56 9936
00000270: 246e c738 a46b 0e37 3c7d 8d38 b2d2 8b38
00000280: 0aee af38 2b44 4638 abda 9ab7 efe3 3638
00000290: 9612 a637 3bab 56b8 8bed e9b8 ac56 d5b6
000002a0: 6636 be38 2a7c a238 6249 4bb8 fd00 5eb8
000002b0: 0f9e f138 7759 bdb5 2986 4a37 c716 06b8
000002c0: 6f97 c0b8 7720 c737 fa81 8338 3805 2938
000002d0: 003b d138 5db4 91b8 27d2 3c36 bb3f ed37
000002e0: 5098 9a38 e2e3 b537 7f5f b6b8 fadd b6b8
000002f0: 9e60 07b7 9281 65b8 3bb6 1fb8 44bd c638
00000300: ce8e 17b9 601c 9c38 5773 9a37 df76 7db8
00000310: 2ad3 be38 9d21 36b9 398a bfb9 7939 56b9
00000320: db1b ff39 ba65 2939 081d 5e39 b32c 98b8
00000330: 2a55 6239 27d4 62b9 3ee5 e0b8 c7e3 c537
00000340: cfd5 3339 d1f2 b539 e402 8139 9280 f7b8
00000350: a966 0f38 0089 f238 829f 8c38 32e9 f9b8
00000360: bccd 3039 3c2f 3b38 b843 8f39 e31d c937
00000370: 5e85 bab7 fbbe 5bb8 0774 cc37 329b 3eb6
00000380: d605 3b38 960f 0fb9 3062 0338 f1a9 0d39
00000390: b377 8338 8f93 e237 2737 38b9 0dc9 0db9
000003a0: 9a52 81b8 e864 2cb8 8372 bcb7 8369 e5b7
000003b0: 0b16 82b9 5a86 5139 46af 35b9 fa4f 55b9
000003c0: d519 9db8 f053 c2b8 1142 ff37 623a 7737
000003d0: 60da 6b37 bc58 1538 d50c b838 8a30 5d38
000003e0: 66dc 8438 c3b0 59b6 8ed8 14b8 b791 7c38
000003f0: 6f21 8938 a5d8 75b7 79af 7839 c42a 11b9

exp_avg_sq f4 [256, 22]
1.288497e-05 1.0517617e-05 1.19743745e-05 1.5164541e-05 9.420808e-06 1.4192452e-05 2.3792184e-06 7.4736573e-07
2.0095276e-06 1.529707e-06 2.1679175e-06 2.4242574e-06 3.1791396e-06 1.5545776e-06 1.767868e-06 4.9137143e-06
5.533042e-06 6.6952957e-06 2.094903e-05 1.1807776e-05 2.6416306e-05 2.580692e-05 5.513993e-07 4.6310873e-07
5.3242195e-07 7.74192e-07 4.4949752e-07 7.128352e-07 3.55058e-07 9.2683855e-08 4.6751467e-07 1.4612753e-07
2.8523309e-07 3.1242328e-07 3.2169504e-07 1.4156872e-07 2.007736e-07 6.0911543e-07 5.271045e-07 5.373525e-07
8.8407535e-07 8.121993e-07 1.163069e-06 1.2815715e-06 1.4778409e-06 1.1792305e-06 1.5182347e-06 2.4661097e-06
1.0411798e-06 1.5787872e-06 5.021412e-07 1.6352338e-07 4.612158e-07 4.6280678e-07 5.435183e-07 5.404688e-07
6.7317586e-07 4.3334853e-07 3.5190942e-07 7.641302e-07 8.969653e-07 8.025674e-07 1.0369558e-06 1.5570819e-06
2.7363374e-06 2.6610712e-06 4.953447e-07 2.9848925e-07 3.343442e-07 8.8847156e-07 3.0529134e-07 5.98387e-07
1.744694e-07 5.4915358e-08 1.17193174e-07 6.20918e-08 1.320528e-07 1.9351421e-07 1.7456769e-07 7.547625e-08
1.2461756e-07 2.7682714e-07 2.6966435e-07 3.2833498e-07 6.0402465e-07 4.5259418e-07 9.2579165e-07 9.291195e-07
2.1440812e-06 1.9869776e-06 2.1656763e-06 3.4250365e-06 1.4790745e-06 2.5020715e-06 7.1100146e-07 2.5156032e-07
5.8558214e-07 6.322195e-07 6.365641e-07 8.693437e-07 1.0234866e-06 5.9408256e-07 5.1329954e-07 1.1322196e-06
1.3364324e-06 1.3646039e-06 1.8918724e-06 2.3972877e-06 3.7052585e-06 3.5113912e-06 4.4584567e-07 2.7738486e-07
3.4824845e-07 8.154043e-07 3.4113773e-07 6.2136877e-07 2.0912063e-07 3.8503593e-08 1.7376011e-07 4.1103768e-08
1.4126715e-07 1.6691963e-07 2.0316102e-07 7.1291446e-08 1.4849279e-07 3.6412277e-07 3.014922e-07 3.4320536e-07
6.1920764e-07 4.2702217e-07 8.6541627e-07 7.731165e-07 3.980001e-06 3.102192e-06 3.888779e-06 5.021142e-06
2.9069702e-06 4.319503e-06 1.617276e-06 3.0500686e-07 1.1440279e-06 8.790758e-07 1.1904938e-06 1.3491741e-06
1.6185784e-06 7.9101306e-07 1.0432667e-06 2.2533366e-06 2.4187582e-06 2.5825277e-06 4.7311514e-06 4.225389e-06
7.66818e-06 7.4453806e-06 3.0349148e-07 3.180153e-07 2.5167566e-07 1.3098505e-06 2.0844091e-07 5.4393803e-07
8.718432e-08 5.395654e-08 6.096089e-08 3.1712858e-08 4.6675293e-08 5.3431954e-08 1.7835237e-07 5.4675603e-08
7.900433e-08 2.1026455e-07 2.0223715e-07 1.702182e-07 3.172263e-07 3.6168325e-07 1.1075289e-06 9.458326e-07
8.880724e-07 6.001109e-07 1.0303656e-06 1.15682e-06 7.4513264e-07 1.0435072e-06 5.7456066e-07 1.2197097e-07
6.2947845e-07 2.519165e-07 4.536121e-07 6.403044e-07 3.9405913e-07 2.525618e-07 3.6216386e-07 8.099019e-07
6.224915e-07 7.161722e-07 8.1207776e-07 1.0382394e-06 1.1970964e-06 1.3582619e-06 6.18745e-06 4.9135165e-06
6.589902e-06 1.0765906e-05 5.689929e-06 7.1392565e-06 4.818987e-07 2.5487475e-07 3.2850141e-07 6.0598495e-07
7.8896227e-07 6.2887773e-07 1.1833829e-06 8.3554016e-07 4.3861715e-07 1.5525458e-06 2.5236316e-06 2.181746e-06
1.2735119e-05 6.0227244e-06 2.0053696e-05 1.8252404e-05 1.7391689e-06 1.543329e-06 1.8007298e-06 2.5998233e-06
1.1035039e-06 1.8177626e-06 5.7582633e-07 2.0858444e-07 5.2565014e-07 5.7952235e-07 6.399512e-07 8.4301803e-07
9.296855e-07 5.4244435e-07 4.786255e-07 1.1387657e-06 1.133951e-06 1.0682622e-06 1.5123138e-06 2.1349142e-06
2.4344972e-06 2.4768788e-06 1.1840771e-06 5.3100564e-07 9.978392e-07 1.3041215e-06 7.7944463e-07 1.6300244e-06
1.3784605e-06 2.2025964e-07 1.0659692e-06 2.8787008e-07 7.3232167e-07 9.761443e-07 1.0983682e-06 3.3381687e-07
00000000: 862c 5837 d274 3037 8ce5 4837 356b 7e37
00000010: 100e 1e37 1e1c 6e37 a9aa 1f36 959e 4835
00000020: 6cdb 0636 5550 cd35 8a7c 1136 6db0 2236
00000030: 3459 5536 e1a6 d035 7b47 ed35 7ce0 a436
00000040: 78a8 b936 27a8 e036 b3bb af37 031a 4637
00000050: 9698 dd37 f07b d837 df03 1435 2ea1 f834
00000060: c2eb 0e35 12d2 4f35 7852 f134 a959 3f35
00000070: cd9e be34 7d09 c733 bafe fa34 3be7 1c34
00000080: 2322 9934 21bb a734 6eb5 ac34 1d02 1834
00000090: 3a94 5734 1882 2335 587e 0d35 953e 1035
000000a0: 3251 6d35 e905 5a35 bf1a 9c35 7602 ac35
000000b0: 3a5a c635 0d46 9e35 26c6 cb35 717f 2536
000000c0: aabe 8b35 b7e6 d335 e1ca 0635 f794 2f34
000000d0: 049d f734 ae77 f834 4be6 1135 bc14 1135
000000e0: 4bb4 3435 f8a6 e834 10ee bc34 a11e 4d35
000000f0: fcc6 7035 0370 5735 882d 8b35 edfc d035
00000100: eba1 3736 db94 3236 d4f7 0435 0d40 a034
00000110: eb7f b334 4d7f 6e35 ece6 a334 d7a0 2035
00000120: c955 3b34 13dc 6b33 a1ab fb33 5457 8533
00000130: 66ca 0d34 c8c8 4f34 cd70 3b34 8215 a233
00000140: 9dce 0534 d59e 9434 63c6 9034 0446 b034
00000150: 4224 2235 12fc f234 eb83 7835 9b68 7935
00000160: 09e3 0f36 0458 0536 0956 1136 aed9 6536
00000170: 9d84 c635 43e9 2736 a6db 3e35 300e 8734
00000180: e630 1d35 cbb5 2935 5ae0 2a35 d85c 6935
00000190: bb5e 8935 0b79 1f35 adc9 0935 c5f6 9735
000001a0: 785f b335 6f27 b735 3eec fd35 17e1 2036
000001b0: dba7 7836 3ea5 6b36 905c ef34 7ceb 9434
000001c0: e7f6 ba34 28e2 5a35 9d25 b734 23cc 2635
000001d0: a48a 6034 265f 2533 d192 3a34 128a 3033
000001e0: 38af 1734 853a 3334 7a24 5a34 e318 9933
000001f0: 6371 1f34 a77c c334 c6dc a134 c941 b834
00000200: a037 2635 7b41 e534 f44e 6835 2988 4f35
00000210: f38b 8536 412f 5036 5b7c 8236 487b a836
00000220: 5e15 4336 40f0 9036 2e11 d935 d3bf a334
00000230: 808c 9935 a1f9 6b35 0ec9 9f35 4515 b535
00000240: ee3d d935 0156 5435 5f06 8c35 0738 1736
00000250: f351 2236 7d4f 2d36 48c0 9e36 d1c7 8d36
00000260: 95a6 0037 55d3 f936 8def a234 b1bb aa34
00000270: 0a1e 8734 1fce af35 cdcf 5f34 2303 1235
00000280: 163a bb33 d8bd 6733 9be9 8233 a834 0833
00000290: 0778 4833 0e7d 6533 2081 3f34 76d4 6a33
000002a0: 17a9 a933 14c5 6134 8626 5934 39c5 3634
000002b0: 404f aa34 5e2d c234 67a6 9435 1fe5 7d35
000002c0: df63 6e35 4f17 2135 184b 8a35 0844 9b35
000002d0: 2005 4835 a20e 8c35 823b 1a35 20f7 0234
000002e0: 6ef9 2835 243f 8734 f987 f334 62e1 2b35
000002f0: 138f d334 d497 8734 6c6f c234 0968 5935
00000300: 4a19 2735 fb3e 4035 8ffd 5935 a259 8b35
00000310: ebab a035 864d b635 ca9d cf36 c9de a436
00000320: d41e dd36 379f 3437 1eec be36 bf8d ef36
00000330: d45b 0135 b8d5 8834 e45c b034 f8aa 2235
00000340: 13c9 5335 26d0 2835 bad4 9e35 e249 6035
00000350: 157b eb34 1161 d035 a95b 2936 1c6a 1236
00000360: eba8 5537 cf16 ca36 fc38 a837 bd1c 9937
00000370: 636d e935 6124 cf35 9bb0 f135 a078 2e36
00000380: 1b1c 9435 d9f9 f335 7c92 1a35 41f7 5f34
00000390: 671a 0d35 7990 1b35 1dc9 2b35 c24b 6235
000003a0: 808f 7935 7e9c 1135 e57a 0035 b1d7 9835
000003b0: 4232 9835 3661 8f35 b5fa ca35 8c45 0f36
000003c0: 5860 2336 7438 2636 94ec 9e35 6e8a 0e35
000003d0: 7eed 8535 4609 af35 073b 5135 36c7 da35
000003e0: 8b03 b935 8280 6c34 6c12 8f35 908c 9a34
000003f0: c394 4435 1004 8335 a56b 9335 7137 b334
